…
I0807 14:52:41.800220 11225 net.cpp:58] Initializing net from parameters: 
name: "VGG_ILSVRC_16_layers"
state {
  phase: TRAIN
  level: 0
  stage: ""
}
layer {
  name: "data"
  type: "Data"
  top: "data"
  top: "label"
  include {
    phase: TRAIN
  }
  transform_param {
    mirror: true
    crop_size: 224
    mean_value: 103.939
    mean_value: 116.779
    mean_value: 123.68
  }
  data_param {
    source: "/home/lijun/Research/DataSet/ILSVRC2014/ILSVRC2014_DET/image/ilsvrc14_train_lmdb"
    batch_size: 32
    backend: LMDB
    multi_label: true
    label_size: 16
  }
}
layer {
  name: "conv1_1"
  type: "Convolution"
  bottom: "data"
  top: "conv1_1"
  param {
    lr_mult: 1
    decay_mult: 1
  }
  param {
    lr_mult: 2
    decay_mult: 0
  }
  convolution_param {
    num_output: 64
    pad: 1
    kernel_size: 3
  }
}
layer {
  name: "relu1_1"
  type: "ReLU"
  bottom: "conv1_1"
  top: "conv1_1"
}
layer {
  name: "conv1_2"
  type: "Convolution"
  bottom: "conv1_1"
  top: "conv1_2"
  param {
    lr_mult: 1
    decay_mult: 1
  }
  param {
    lr_mult: 2
    decay_mult: 0
  }
  convolution_param {
    num_output: 64
    pad: 1
    kernel_size: 3
  }
}
layer {
  name: "relu1_2"
  type: "ReLU"
  bottom: "conv1_2"
  top: "conv1_2"
}
layer {
  name: "pool1"
  type: "Pooling"
  bottom: "conv1_2"
  top: "pool1"
  pooling_param {
    pool: MAX
    kernel_size: 2
    stride: 2
  }
}
layer {
  name: "conv2_1"
  type: "Convolution"
  bottom: "pool1"
  top: "conv2_1"
  param {
    lr_mult: 1
    decay_mult: 1
  }
  param {
    lr_mult: 2
    decay_mult: 0
  }
  convolution_param {
    num_output: 128
    pad: 1
    kernel_size: 3
  }
}
layer {
  name: "relu2_1"
  type: "ReLU"
  bottom: "conv2_1"
  top: "conv2_1"
}
layer {
  name: "conv2_2"
  type: "Convolution"
  bottom: "conv2_1"
  top: "conv2_2"
  param {
    lr_mult: 1
    decay_mult: 1
  }
  param {
    lr_mult: 2
    decay_mult: 0
  }
  convolution_param {
    num_output: 128
    pad: 1
    kernel_size: 3
  }
}
layer {
  name: "relu2_2"
  type: "ReLU"
  bottom: "conv2_2"
  top: "conv2_2"
}
layer {
  name: "pool2"
  type: "Pooling"
  bottom: "conv2_2"
  top: "pool2"
  pooling_param {
    pool: MAX
    kernel_size: 2
    stride: 2
  }
}
layer {
  name: "conv3_1"
  type: "Convolution"
  bottom: "pool2"
  top: "conv3_1"
  param {
    lr_mult: 1
    decay_mult: 1
  }
  param {
    lr_mult: 2
    decay_mult: 0
  }
  convolution_param {
    num_output: 256
    pad: 1
    kernel_size: 3
  }
}
layer {
  name: "relu3_1"
  type: "ReLU"
  bottom: "conv3_1"
  top: "conv3_1"
}
layer {
  name: "conv3_2"
  type: "Convolution"
  bottom: "conv3_1"
  top: "conv3_2"
  param {
    lr_mult: 1
    decay_mult: 1
  }
  param {
    lr_mult: 2
    decay_mult: 0
  }
  convolution_param {
    num_output: 256
    pad: 1
    kernel_size: 3
  }
}
layer {
  name: "relu3_2"
  type: "ReLU"
  bottom: "conv3_2"
  top: "conv3_2"
}
layer {
  name: "conv3_3"
  type: "Convolution"
  bottom: "conv3_2"
  top: "conv3_3"
  param {
    lr_mult: 1
    decay_mult: 1
  }
  param {
    lr_mult: 2
    decay_mult: 0
  }
  convolution_param {
    num_output: 256
    pad: 1
    kernel_size: 3
  }
}
layer {
  name: "relu3_3"
  type: "ReLU"
  bottom: "conv3_3"
  top: "conv3_3"
}
layer {
  name: "pool3"
  type: "Pooling"
  bottom: "conv3_3"
  top: "pool3"
  pooling_param {
    pool: MAX
    kernel_size: 2
    stride: 2
  }
}
layer {
  name: "conv4_1"
  type: "Convolution"
  bottom: "pool3"
  top: "conv4_1"
  param {
    lr_mult: 1
    decay_mult: 1
  }
  param {
    lr_mult: 2
    decay_mult: 0
  }
  convolution_param {
    num_output: 512
    pad: 1
    kernel_size: 3
  }
}
layer {
  name: "relu4_1"
  type: "ReLU"
  bottom: "conv4_1"
  top: "conv4_1"
}
layer {
  name: "conv4_2"
  type: "Convolution"
  bottom: "conv4_1"
  top: "conv4_2"
  param {
    lr_mult: 1
    decay_mult: 1
  }
  param {
    lr_mult: 2
    decay_mult: 0
  }
  convolution_param {
    num_output: 512
    pad: 1
    kernel_size: 3
  }
}
layer {
  name: "relu4_2"
  type: "ReLU"
  bottom: "conv4_2"
  top: "conv4_2"
}
layer {
  name: "conv4_3"
  type: "Convolution"
  bottom: "conv4_2"
  top: "conv4_3"
  param {
    lr_mult: 1
    decay_mult: 1
  }
  param {
    lr_mult: 2
    decay_mult: 0
  }
  convolution_param {
    num_output: 512
    pad: 1
    kernel_size: 3
  }
}
layer {
  name: "relu4_3"
  type: "ReLU"
  bottom: "conv4_3"
  top: "conv4_3"
}
layer {
  name: "pool4"
  type: "Pooling"
  bottom: "conv4_3"
  top: "pool4"
  pooling_param {
    pool: MAX
    kernel_size: 2
    stride: 2
  }
}
layer {
  name: "conv5_1"
  type: "Convolution"
  bottom: "pool4"
  top: "conv5_1"
  param {
    lr_mult: 1
    decay_mult: 1
  }
  param {
    lr_mult: 2
    decay_mult: 0
  }
  convolution_param {
    num_output: 512
    pad: 1
    kernel_size: 3
  }
}
layer {
  name: "relu5_1"
  type: "ReLU"
  bottom: "conv5_1"
  top: "conv5_1"
}
layer {
  name: "conv5_2"
  type: "Convolution"
  bottom: "conv5_1"
  top: "conv5_2"
  param {
    lr_mult: 1
    decay_mult: 1
  }
  param {
    lr_mult: 2
    decay_mult: 0
  }
  convolution_param {
    num_output: 512
    pad: 1
    kernel_size: 3
  }
}
layer {
  name: "relu5_2"
  type: "ReLU"
  bottom: "conv5_2"
  top: "conv5_2"
}
layer {
  name: "conv5_3"
  type: "Convolution"
  bottom: "conv5_2"
  top: "conv5_3"
  param {
    lr_mult: 1
    decay_mult: 1
  }
  param {
    lr_mult: 2
    decay_mult: 0
  }
  convolution_param {
    num_output: 512
    pad: 1
    kernel_size: 3
  }
}
layer {
  name: "relu5_3"
  type: "ReLU"
  bottom: "conv5_3"
  top: "conv5_3"
}
layer {
  name: "CAM_conv"
  type: "Convolution"
  bottom: "conv5_3"
  top: "CAM_conv"
  param {
    lr_mult: 1
    decay_mult: 1
  }
  param {
    lr_mult: 2
    decay_mult: 0
  }
  convolution_param {
    num_output: 1024
    pad: 1
    kernel_size: 3
    group: 2
    weight_filler {
      type: "gaussian"
      std: 0.01
    }
    bias_filler {
      type: "constant"
      value: 0
    }
  }
}
layer {
  name: "CAM_relu"
  type: "ReLU"
  bottom: "CAM_conv"
  top: "CAM_conv"
}
layer {
  name: "CAM_pool"
  type: "Pooling"
  bottom: "CAM_conv"
  top: "CAM_pool"
  pooling_param {
    pool: AVE
    kernel_size: 14
    stride: 14
  }
}
layer {
  name: "CAM_dropout"
  type: "Dropout"
  bottom: "CAM_pool"
  top: "CAM_pool"
  dropout_param {
    dropout_ratio: 0.5
  }
}
layer {
  name: "CAM_pre"
  type: "InnerProduct"
  bottom: "CAM_pool"
  top: "CAM_pre"
  param {
    lr_mult: 10
    decay_mult: 1
  }
  param {
    lr_mult: 20
    decay_mult: 0
  }
  inner_product_param {
    num_output: 200
    weight_filler {
      type: "gaussian"
      std: 0.01
    }
    bias_filler {
      type: "constant"
      value: 0
    }
  }
}
layer {
  name: "loss"
  type: "SigmoidMultiLabelLoss"
  bottom: "CAM_pre"
  bottom: "label"
  include {
    phase: TRAIN
  }
  include {
    phase: TEST
  }
}
I0807 14:52:41.800343 11225 layer_factory.hpp:77] Creating layer data
I0807 14:52:41.800732 11225 net.cpp:100] Creating Layer data
I0807 14:52:41.800761 11225 net.cpp:408] data -> data
I0807 14:52:41.800783 11225 net.cpp:408] data -> label
I0807 14:52:41.801425 11231 db_lmdb.cpp:35] Opened lmdb /home/lijun/Research/DataSet/ILSVRC2014/ILSVRC2014_DET/image/ilsvrc14_train_lmdb
I0807 14:52:41.810001 11225 data_layer.cpp:45] output data size: 32,3,224,224
I0807 14:52:41.838318 11225 net.cpp:150] Setting up data
I0807 14:52:41.838356 11225 net.cpp:157] Top shape: 32 3 224 224 (4816896)
I0807 14:52:41.838361 11225 net.cpp:157] Top shape: 32 16 1 1 (512)
I0807 14:52:41.838379 11225 net.cpp:165] Memory required for data: 19269632
I0807 14:52:41.838387 11225 layer_factory.hpp:77] Creating layer conv1_1
I0807 14:52:41.838397 11225 layer_factory.cpp:68] Use CuDNNConvolutionLayer
I0807 14:52:41.838412 11225 net.cpp:100] Creating Layer conv1_1
I0807 14:52:41.838418 11225 net.cpp:434] conv1_1 <- data
I0807 14:52:41.838429 11225 net.cpp:408] conv1_1 -> conv1_1
I0807 14:52:42.003270 11225 net.cpp:150] Setting up conv1_1
I0807 14:52:42.003294 11225 net.cpp:157] Top shape: 32 64 224 224 (102760448)
I0807 14:52:42.003298 11225 net.cpp:165] Memory required for data: 430311424
I0807 14:52:42.003312 11225 layer_factory.hpp:77] Creating layer relu1_1
I0807 14:52:42.003322 11225 net.cpp:100] Creating Layer relu1_1
I0807 14:52:42.003327 11225 net.cpp:434] relu1_1 <- conv1_1
I0807 14:52:42.003332 11225 net.cpp:395] relu1_1 -> conv1_1 (in-place)
I0807 14:52:42.003624 11225 net.cpp:150] Setting up relu1_1
I0807 14:52:42.003639 11225 net.cpp:157] Top shape: 32 64 224 224 (102760448)
I0807 14:52:42.003645 11225 net.cpp:165] Memory required for data: 841353216
I0807 14:52:42.003650 11225 layer_factory.hpp:77] Creating layer conv1_2
I0807 14:52:42.003657 11225 layer_factory.cpp:68] Use CuDNNConvolutionLayer
I0807 14:52:42.003666 11225 net.cpp:100] Creating Layer conv1_2
I0807 14:52:42.003671 11225 net.cpp:434] conv1_2 <- conv1_1
I0807 14:52:42.003679 11225 net.cpp:408] conv1_2 -> conv1_2
I0807 14:52:42.004434 11225 net.cpp:150] Setting up conv1_2
I0807 14:52:42.004446 11225 net.cpp:157] Top shape: 32 64 224 224 (102760448)
I0807 14:52:42.004449 11225 net.cpp:165] Memory required for data: 1252395008
I0807 14:52:42.004457 11225 layer_factory.hpp:77] Creating layer relu1_2
I0807 14:52:42.004463 11225 net.cpp:100] Creating Layer relu1_2
I0807 14:52:42.004467 11225 net.cpp:434] relu1_2 <- conv1_2
I0807 14:52:42.004472 11225 net.cpp:395] relu1_2 -> conv1_2 (in-place)
I0807 14:52:42.004586 11225 net.cpp:150] Setting up relu1_2
I0807 14:52:42.004595 11225 net.cpp:157] Top shape: 32 64 224 224 (102760448)
I0807 14:52:42.004598 11225 net.cpp:165] Memory required for data: 1663436800
I0807 14:52:42.004601 11225 layer_factory.hpp:77] Creating layer pool1
I0807 14:52:42.004609 11225 net.cpp:100] Creating Layer pool1
I0807 14:52:42.004612 11225 net.cpp:434] pool1 <- conv1_2
I0807 14:52:42.004616 11225 net.cpp:408] pool1 -> pool1
I0807 14:52:42.004653 11225 net.cpp:150] Setting up pool1
I0807 14:52:42.004662 11225 net.cpp:157] Top shape: 32 64 112 112 (25690112)
I0807 14:52:42.004664 11225 net.cpp:165] Memory required for data: 1766197248
I0807 14:52:42.004668 11225 layer_factory.hpp:77] Creating layer conv2_1
I0807 14:52:42.004673 11225 layer_factory.cpp:68] Use CuDNNConvolutionLayer
I0807 14:52:42.004678 11225 net.cpp:100] Creating Layer conv2_1
I0807 14:52:42.004680 11225 net.cpp:434] conv2_1 <- pool1
I0807 14:52:42.004686 11225 net.cpp:408] conv2_1 -> conv2_1
I0807 14:52:42.006146 11225 net.cpp:150] Setting up conv2_1
I0807 14:52:42.006158 11225 net.cpp:157] Top shape: 32 128 112 112 (51380224)
I0807 14:52:42.006162 11225 net.cpp:165] Memory required for data: 1971718144
I0807 14:52:42.006170 11225 layer_factory.hpp:77] Creating layer relu2_1
I0807 14:52:42.006176 11225 net.cpp:100] Creating Layer relu2_1
I0807 14:52:42.006181 11225 net.cpp:434] relu2_1 <- conv2_1
I0807 14:52:42.006184 11225 net.cpp:395] relu2_1 -> conv2_1 (in-place)
I0807 14:52:42.006311 11225 net.cpp:150] Setting up relu2_1
I0807 14:52:42.006319 11225 net.cpp:157] Top shape: 32 128 112 112 (51380224)
I0807 14:52:42.006322 11225 net.cpp:165] Memory required for data: 2177239040
I0807 14:52:42.006326 11225 layer_factory.hpp:77] Creating layer conv2_2
I0807 14:52:42.006330 11225 layer_factory.cpp:68] Use CuDNNConvolutionLayer
I0807 14:52:42.006337 11225 net.cpp:100] Creating Layer conv2_2
I0807 14:52:42.006340 11225 net.cpp:434] conv2_2 <- conv2_1
I0807 14:52:42.006346 11225 net.cpp:408] conv2_2 -> conv2_2
I0807 14:52:42.007200 11225 net.cpp:150] Setting up conv2_2
I0807 14:52:42.007211 11225 net.cpp:157] Top shape: 32 128 112 112 (51380224)
I0807 14:52:42.007227 11225 net.cpp:165] Memory required for data: 2382759936
I0807 14:52:42.007233 11225 layer_factory.hpp:77] Creating layer relu2_2
I0807 14:52:42.007239 11225 net.cpp:100] Creating Layer relu2_2
I0807 14:52:42.007242 11225 net.cpp:434] relu2_2 <- conv2_2
I0807 14:52:42.007248 11225 net.cpp:395] relu2_2 -> conv2_2 (in-place)
I0807 14:52:42.007452 11225 net.cpp:150] Setting up relu2_2
I0807 14:52:42.007462 11225 net.cpp:157] Top shape: 32 128 112 112 (51380224)
I0807 14:52:42.007465 11225 net.cpp:165] Memory required for data: 2588280832
I0807 14:52:42.007468 11225 layer_factory.hpp:77] Creating layer pool2
I0807 14:52:42.007473 11225 net.cpp:100] Creating Layer pool2
I0807 14:52:42.007477 11225 net.cpp:434] pool2 <- conv2_2
I0807 14:52:42.007483 11225 net.cpp:408] pool2 -> pool2
I0807 14:52:42.007515 11225 net.cpp:150] Setting up pool2
I0807 14:52:42.007521 11225 net.cpp:157] Top shape: 32 128 56 56 (12845056)
I0807 14:52:42.007524 11225 net.cpp:165] Memory required for data: 2639661056
I0807 14:52:42.007527 11225 layer_factory.hpp:77] Creating layer conv3_1
I0807 14:52:42.007532 11225 layer_factory.cpp:68] Use CuDNNConvolutionLayer
I0807 14:52:42.007539 11225 net.cpp:100] Creating Layer conv3_1
I0807 14:52:42.007544 11225 net.cpp:434] conv3_1 <- pool2
I0807 14:52:42.007550 11225 net.cpp:408] conv3_1 -> conv3_1
I0807 14:52:42.008792 11225 net.cpp:150] Setting up conv3_1
I0807 14:52:42.008805 11225 net.cpp:157] Top shape: 32 256 56 56 (25690112)
I0807 14:52:42.008810 11225 net.cpp:165] Memory required for data: 2742421504
I0807 14:52:42.008817 11225 layer_factory.hpp:77] Creating layer relu3_1
I0807 14:52:42.008823 11225 net.cpp:100] Creating Layer relu3_1
I0807 14:52:42.008826 11225 net.cpp:434] relu3_1 <- conv3_1
I0807 14:52:42.008831 11225 net.cpp:395] relu3_1 -> conv3_1 (in-place)
I0807 14:52:42.008970 11225 net.cpp:150] Setting up relu3_1
I0807 14:52:42.008980 11225 net.cpp:157] Top shape: 32 256 56 56 (25690112)
I0807 14:52:42.008982 11225 net.cpp:165] Memory required for data: 2845181952
I0807 14:52:42.008986 11225 layer_factory.hpp:77] Creating layer conv3_2
I0807 14:52:42.008991 11225 layer_factory.cpp:68] Use CuDNNConvolutionLayer
I0807 14:52:42.008997 11225 net.cpp:100] Creating Layer conv3_2
I0807 14:52:42.009001 11225 net.cpp:434] conv3_2 <- conv3_1
I0807 14:52:42.009006 11225 net.cpp:408] conv3_2 -> conv3_2
I0807 14:52:42.010571 11225 net.cpp:150] Setting up conv3_2
I0807 14:52:42.010583 11225 net.cpp:157] Top shape: 32 256 56 56 (25690112)
I0807 14:52:42.010587 11225 net.cpp:165] Memory required for data: 2947942400
I0807 14:52:42.010593 11225 layer_factory.hpp:77] Creating layer relu3_2
I0807 14:52:42.010598 11225 net.cpp:100] Creating Layer relu3_2
I0807 14:52:42.010602 11225 net.cpp:434] relu3_2 <- conv3_2
I0807 14:52:42.010607 11225 net.cpp:395] relu3_2 -> conv3_2 (in-place)
I0807 14:52:42.010732 11225 net.cpp:150] Setting up relu3_2
I0807 14:52:42.010740 11225 net.cpp:157] Top shape: 32 256 56 56 (25690112)
I0807 14:52:42.010745 11225 net.cpp:165] Memory required for data: 3050702848
I0807 14:52:42.010747 11225 layer_factory.hpp:77] Creating layer conv3_3
I0807 14:52:42.010751 11225 layer_factory.cpp:68] Use CuDNNConvolutionLayer
I0807 14:52:42.010758 11225 net.cpp:100] Creating Layer conv3_3
I0807 14:52:42.010761 11225 net.cpp:434] conv3_3 <- conv3_2
I0807 14:52:42.010767 11225 net.cpp:408] conv3_3 -> conv3_3
I0807 14:52:42.012339 11225 net.cpp:150] Setting up conv3_3
I0807 14:52:42.012351 11225 net.cpp:157] Top shape: 32 256 56 56 (25690112)
I0807 14:52:42.012354 11225 net.cpp:165] Memory required for data: 3153463296
I0807 14:52:42.012361 11225 layer_factory.hpp:77] Creating layer relu3_3
I0807 14:52:42.012369 11225 net.cpp:100] Creating Layer relu3_3
I0807 14:52:42.012372 11225 net.cpp:434] relu3_3 <- conv3_3
I0807 14:52:42.012378 11225 net.cpp:395] relu3_3 -> conv3_3 (in-place)
I0807 14:52:42.012584 11225 net.cpp:150] Setting up relu3_3
I0807 14:52:42.012594 11225 net.cpp:157] Top shape: 32 256 56 56 (25690112)
I0807 14:52:42.012598 11225 net.cpp:165] Memory required for data: 3256223744
I0807 14:52:42.012612 11225 layer_factory.hpp:77] Creating layer pool3
I0807 14:52:42.012619 11225 net.cpp:100] Creating Layer pool3
I0807 14:52:42.012624 11225 net.cpp:434] pool3 <- conv3_3
I0807 14:52:42.012629 11225 net.cpp:408] pool3 -> pool3
I0807 14:52:42.012660 11225 net.cpp:150] Setting up pool3
I0807 14:52:42.012670 11225 net.cpp:157] Top shape: 32 256 28 28 (6422528)
I0807 14:52:42.012673 11225 net.cpp:165] Memory required for data: 3281913856
I0807 14:52:42.012676 11225 layer_factory.hpp:77] Creating layer conv4_1
I0807 14:52:42.012681 11225 layer_factory.cpp:68] Use CuDNNConvolutionLayer
I0807 14:52:42.012686 11225 net.cpp:100] Creating Layer conv4_1
I0807 14:52:42.012688 11225 net.cpp:434] conv4_1 <- pool3
I0807 14:52:42.012694 11225 net.cpp:408] conv4_1 -> conv4_1
I0807 14:52:42.015187 11225 net.cpp:150] Setting up conv4_1
I0807 14:52:42.015205 11225 net.cpp:157] Top shape: 32 512 28 28 (12845056)
I0807 14:52:42.015213 11225 net.cpp:165] Memory required for data: 3333294080
I0807 14:52:42.015223 11225 layer_factory.hpp:77] Creating layer relu4_1
I0807 14:52:42.015233 11225 net.cpp:100] Creating Layer relu4_1
I0807 14:52:42.015239 11225 net.cpp:434] relu4_1 <- conv4_1
I0807 14:52:42.015245 11225 net.cpp:395] relu4_1 -> conv4_1 (in-place)
I0807 14:52:42.015393 11225 net.cpp:150] Setting up relu4_1
I0807 14:52:42.015403 11225 net.cpp:157] Top shape: 32 512 28 28 (12845056)
I0807 14:52:42.015408 11225 net.cpp:165] Memory required for data: 3384674304
I0807 14:52:42.015410 11225 layer_factory.hpp:77] Creating layer conv4_2
I0807 14:52:42.015415 11225 layer_factory.cpp:68] Use CuDNNConvolutionLayer
I0807 14:52:42.015422 11225 net.cpp:100] Creating Layer conv4_2
I0807 14:52:42.015425 11225 net.cpp:434] conv4_2 <- conv4_1
I0807 14:52:42.015430 11225 net.cpp:408] conv4_2 -> conv4_2
I0807 14:52:42.019739 11225 net.cpp:150] Setting up conv4_2
I0807 14:52:42.019767 11225 net.cpp:157] Top shape: 32 512 28 28 (12845056)
I0807 14:52:42.019771 11225 net.cpp:165] Memory required for data: 3436054528
I0807 14:52:42.019784 11225 layer_factory.hpp:77] Creating layer relu4_2
I0807 14:52:42.019793 11225 net.cpp:100] Creating Layer relu4_2
I0807 14:52:42.019798 11225 net.cpp:434] relu4_2 <- conv4_2
I0807 14:52:42.019803 11225 net.cpp:395] relu4_2 -> conv4_2 (in-place)
I0807 14:52:42.019932 11225 net.cpp:150] Setting up relu4_2
I0807 14:52:42.019939 11225 net.cpp:157] Top shape: 32 512 28 28 (12845056)
I0807 14:52:42.019944 11225 net.cpp:165] Memory required for data: 3487434752
I0807 14:52:42.019948 11225 layer_factory.hpp:77] Creating layer conv4_3
I0807 14:52:42.019953 11225 layer_factory.cpp:68] Use CuDNNConvolutionLayer
I0807 14:52:42.019958 11225 net.cpp:100] Creating Layer conv4_3
I0807 14:52:42.019961 11225 net.cpp:434] conv4_3 <- conv4_2
I0807 14:52:42.019968 11225 net.cpp:408] conv4_3 -> conv4_3
I0807 14:52:42.024919 11225 net.cpp:150] Setting up conv4_3
I0807 14:52:42.024940 11225 net.cpp:157] Top shape: 32 512 28 28 (12845056)
I0807 14:52:42.024945 11225 net.cpp:165] Memory required for data: 3538814976
I0807 14:52:42.024951 11225 layer_factory.hpp:77] Creating layer relu4_3
I0807 14:52:42.024961 11225 net.cpp:100] Creating Layer relu4_3
I0807 14:52:42.024966 11225 net.cpp:434] relu4_3 <- conv4_3
I0807 14:52:42.024971 11225 net.cpp:395] relu4_3 -> conv4_3 (in-place)
I0807 14:52:42.025197 11225 net.cpp:150] Setting up relu4_3
I0807 14:52:42.025207 11225 net.cpp:157] Top shape: 32 512 28 28 (12845056)
I0807 14:52:42.025210 11225 net.cpp:165] Memory required for data: 3590195200
I0807 14:52:42.025213 11225 layer_factory.hpp:77] Creating layer pool4
I0807 14:52:42.025220 11225 net.cpp:100] Creating Layer pool4
I0807 14:52:42.025224 11225 net.cpp:434] pool4 <- conv4_3
I0807 14:52:42.025230 11225 net.cpp:408] pool4 -> pool4
I0807 14:52:42.025262 11225 net.cpp:150] Setting up pool4
I0807 14:52:42.025269 11225 net.cpp:157] Top shape: 32 512 14 14 (3211264)
I0807 14:52:42.025272 11225 net.cpp:165] Memory required for data: 3603040256
I0807 14:52:42.025275 11225 layer_factory.hpp:77] Creating layer conv5_1
I0807 14:52:42.025291 11225 layer_factory.cpp:68] Use CuDNNConvolutionLayer
I0807 14:52:42.025298 11225 net.cpp:100] Creating Layer conv5_1
I0807 14:52:42.025302 11225 net.cpp:434] conv5_1 <- pool4
I0807 14:52:42.025307 11225 net.cpp:408] conv5_1 -> conv5_1
I0807 14:52:42.029728 11225 net.cpp:150] Setting up conv5_1
I0807 14:52:42.029757 11225 net.cpp:157] Top shape: 32 512 14 14 (3211264)
I0807 14:52:42.029762 11225 net.cpp:165] Memory required for data: 3615885312
I0807 14:52:42.029769 11225 layer_factory.hpp:77] Creating layer relu5_1
I0807 14:52:42.029778 11225 net.cpp:100] Creating Layer relu5_1
I0807 14:52:42.029783 11225 net.cpp:434] relu5_1 <- conv5_1
I0807 14:52:42.029788 11225 net.cpp:395] relu5_1 -> conv5_1 (in-place)
I0807 14:52:42.029917 11225 net.cpp:150] Setting up relu5_1
I0807 14:52:42.029925 11225 net.cpp:157] Top shape: 32 512 14 14 (3211264)
I0807 14:52:42.029928 11225 net.cpp:165] Memory required for data: 3628730368
I0807 14:52:42.029932 11225 layer_factory.hpp:77] Creating layer conv5_2
I0807 14:52:42.029937 11225 layer_factory.cpp:68] Use CuDNNConvolutionLayer
I0807 14:52:42.029943 11225 net.cpp:100] Creating Layer conv5_2
I0807 14:52:42.029947 11225 net.cpp:434] conv5_2 <- conv5_1
I0807 14:52:42.029961 11225 net.cpp:408] conv5_2 -> conv5_2
I0807 14:52:42.034476 11225 net.cpp:150] Setting up conv5_2
I0807 14:52:42.034500 11225 net.cpp:157] Top shape: 32 512 14 14 (3211264)
I0807 14:52:42.034504 11225 net.cpp:165] Memory required for data: 3641575424
I0807 14:52:42.034512 11225 layer_factory.hpp:77] Creating layer relu5_2
I0807 14:52:42.034519 11225 net.cpp:100] Creating Layer relu5_2
I0807 14:52:42.034524 11225 net.cpp:434] relu5_2 <- conv5_2
I0807 14:52:42.034534 11225 net.cpp:395] relu5_2 -> conv5_2 (in-place)
I0807 14:52:42.034658 11225 net.cpp:150] Setting up relu5_2
I0807 14:52:42.034667 11225 net.cpp:157] Top shape: 32 512 14 14 (3211264)
I0807 14:52:42.034670 11225 net.cpp:165] Memory required for data: 3654420480
I0807 14:52:42.034673 11225 layer_factory.hpp:77] Creating layer conv5_3
I0807 14:52:42.034678 11225 layer_factory.cpp:68] Use CuDNNConvolutionLayer
I0807 14:52:42.034684 11225 net.cpp:100] Creating Layer conv5_3
I0807 14:52:42.034687 11225 net.cpp:434] conv5_3 <- conv5_2
I0807 14:52:42.034693 11225 net.cpp:408] conv5_3 -> conv5_3
I0807 14:52:42.039178 11225 net.cpp:150] Setting up conv5_3
I0807 14:52:42.039202 11225 net.cpp:157] Top shape: 32 512 14 14 (3211264)
I0807 14:52:42.039206 11225 net.cpp:165] Memory required for data: 3667265536
I0807 14:52:42.039213 11225 layer_factory.hpp:77] Creating layer relu5_3
I0807 14:52:42.039223 11225 net.cpp:100] Creating Layer relu5_3
I0807 14:52:42.039228 11225 net.cpp:434] relu5_3 <- conv5_3
I0807 14:52:42.039233 11225 net.cpp:395] relu5_3 -> conv5_3 (in-place)
I0807 14:52:42.039445 11225 net.cpp:150] Setting up relu5_3
I0807 14:52:42.039454 11225 net.cpp:157] Top shape: 32 512 14 14 (3211264)
I0807 14:52:42.039458 11225 net.cpp:165] Memory required for data: 3680110592
I0807 14:52:42.039461 11225 layer_factory.hpp:77] Creating layer CAM_conv
I0807 14:52:42.039468 11225 layer_factory.cpp:68] Use CuDNNConvolutionLayer
I0807 14:52:42.039475 11225 net.cpp:100] Creating Layer CAM_conv
I0807 14:52:42.039479 11225 net.cpp:434] CAM_conv <- conv5_3
I0807 14:52:42.039484 11225 net.cpp:408] CAM_conv -> CAM_conv
I0807 14:52:42.093252 11225 net.cpp:150] Setting up CAM_conv
I0807 14:52:42.093276 11225 net.cpp:157] Top shape: 32 1024 14 14 (6422528)
I0807 14:52:42.093279 11225 net.cpp:165] Memory required for data: 3705800704
I0807 14:52:42.093286 11225 layer_factory.hpp:77] Creating layer CAM_relu
I0807 14:52:42.093299 11225 net.cpp:100] Creating Layer CAM_relu
I0807 14:52:42.093304 11225 net.cpp:434] CAM_relu <- CAM_conv
I0807 14:52:42.093309 11225 net.cpp:395] CAM_relu -> CAM_conv (in-place)
I0807 14:52:42.093523 11225 net.cpp:150] Setting up CAM_relu
I0807 14:52:42.093533 11225 net.cpp:157] Top shape: 32 1024 14 14 (6422528)
I0807 14:52:42.093538 11225 net.cpp:165] Memory required for data: 3731490816
I0807 14:52:42.093554 11225 layer_factory.hpp:77] Creating layer CAM_pool
I0807 14:52:42.093560 11225 net.cpp:100] Creating Layer CAM_pool
I0807 14:52:42.093565 11225 net.cpp:434] CAM_pool <- CAM_conv
I0807 14:52:42.093570 11225 net.cpp:408] CAM_pool -> CAM_pool
I0807 14:52:42.093802 11225 net.cpp:150] Setting up CAM_pool
I0807 14:52:42.093811 11225 net.cpp:157] Top shape: 32 1024 1 1 (32768)
I0807 14:52:42.093816 11225 net.cpp:165] Memory required for data: 3731621888
I0807 14:52:42.093818 11225 layer_factory.hpp:77] Creating layer CAM_dropout
I0807 14:52:42.093827 11225 net.cpp:100] Creating Layer CAM_dropout
I0807 14:52:42.093830 11225 net.cpp:434] CAM_dropout <- CAM_pool
I0807 14:52:42.093834 11225 net.cpp:395] CAM_dropout -> CAM_pool (in-place)
I0807 14:52:42.093858 11225 net.cpp:150] Setting up CAM_dropout
I0807 14:52:42.093863 11225 net.cpp:157] Top shape: 32 1024 1 1 (32768)
I0807 14:52:42.093866 11225 net.cpp:165] Memory required for data: 3731752960
I0807 14:52:42.093869 11225 layer_factory.hpp:77] Creating layer CAM_pre
I0807 14:52:42.093878 11225 net.cpp:100] Creating Layer CAM_pre
I0807 14:52:42.093883 11225 net.cpp:434] CAM_pre <- CAM_pool
I0807 14:52:42.093886 11225 net.cpp:408] CAM_pre -> CAM_pre
I0807 14:52:42.098613 11225 net.cpp:150] Setting up CAM_pre
I0807 14:52:42.098623 11225 net.cpp:157] Top shape: 32 200 (6400)
I0807 14:52:42.098628 11225 net.cpp:165] Memory required for data: 3731778560
I0807 14:52:42.098633 11225 layer_factory.hpp:77] Creating layer loss
I0807 14:52:42.098639 11225 net.cpp:100] Creating Layer loss
I0807 14:52:42.098642 11225 net.cpp:434] loss <- CAM_pre
I0807 14:52:42.098646 11225 net.cpp:434] loss <- label
I0807 14:52:42.098654 11225 net.cpp:408] loss -> (automatic)
I0807 14:52:42.098666 11225 layer_factory.hpp:77] Creating layer loss
…
