…
I0806 17:30:10.353847 20798 net.cpp:58] Initializing net from parameters: 
name: "VGG_ILSVRC_16_layers"
state {
  phase: TRAIN
  level: 0
  stage: ""
}
layer {
  name: "data"
  type: "Data"
  top: "data"
  top: "label"
  include {
    phase: TRAIN
  }
  transform_param {
    mirror: true
    crop_size: 224
    mean_value: 103.939
    mean_value: 116.779
    mean_value: 123.68
  }
  data_param {
    source: "/home/lijun/Research/DataSet/ILSVRC2014/ILSVRC2014_DET/image/ilsvrc14_train_lmdb"
    batch_size: 32
    backend: LMDB
    multi_label: true
    label_size: 16
  }
}
layer {
  name: "conv1_1"
  type: "Convolution"
  bottom: "data"
  top: "conv1_1"
  param {
    lr_mult: 1
    decay_mult: 1
  }
  param {
    lr_mult: 2
    decay_mult: 0
  }
  convolution_param {
    num_output: 64
    pad: 1
    kernel_size: 3
  }
}
layer {
  name: "relu1_1"
  type: "ReLU"
  bottom: "conv1_1"
  top: "conv1_1"
}
layer {
  name: "conv1_2"
  type: "Convolution"
  bottom: "conv1_1"
  top: "conv1_2"
  param {
    lr_mult: 1
    decay_mult: 1
  }
  param {
    lr_mult: 2
    decay_mult: 0
  }
  convolution_param {
    num_output: 64
    pad: 1
    kernel_size: 3
  }
}
layer {
  name: "relu1_2"
  type: "ReLU"
  bottom: "conv1_2"
  top: "conv1_2"
}
layer {
  name: "pool1"
  type: "Pooling"
  bottom: "conv1_2"
  top: "pool1"
  pooling_param {
    pool: MAX
    kernel_size: 2
    stride: 2
  }
}
layer {
  name: "conv2_1"
  type: "Convolution"
  bottom: "pool1"
  top: "conv2_1"
  param {
    lr_mult: 1
    decay_mult: 1
  }
  param {
    lr_mult: 2
    decay_mult: 0
  }
  convolution_param {
    num_output: 128
    pad: 1
    kernel_size: 3
  }
}
layer {
  name: "relu2_1"
  type: "ReLU"
  bottom: "conv2_1"
  top: "conv2_1"
}
layer {
  name: "conv2_2"
  type: "Convolution"
  bottom: "conv2_1"
  top: "conv2_2"
  param {
    lr_mult: 1
    decay_mult: 1
  }
  param {
    lr_mult: 2
    decay_mult: 0
  }
  convolution_param {
    num_output: 128
    pad: 1
    kernel_size: 3
  }
}
layer {
  name: "relu2_2"
  type: "ReLU"
  bottom: "conv2_2"
  top: "conv2_2"
}
layer {
  name: "pool2"
  type: "Pooling"
  bottom: "conv2_2"
  top: "pool2"
  pooling_param {
    pool: MAX
    kernel_size: 2
    stride: 2
  }
}
layer {
  name: "conv3_1"
  type: "Convolution"
  bottom: "pool2"
  top: "conv3_1"
  param {
    lr_mult: 1
    decay_mult: 1
  }
  param {
    lr_mult: 2
    decay_mult: 0
  }
  convolution_param {
    num_output: 256
    pad: 1
    kernel_size: 3
  }
}
layer {
  name: "relu3_1"
  type: "ReLU"
  bottom: "conv3_1"
  top: "conv3_1"
}
layer {
  name: "conv3_2"
  type: "Convolution"
  bottom: "conv3_1"
  top: "conv3_2"
  param {
    lr_mult: 1
    decay_mult: 1
  }
  param {
    lr_mult: 2
    decay_mult: 0
  }
  convolution_param {
    num_output: 256
    pad: 1
    kernel_size: 3
  }
}
layer {
  name: "relu3_2"
  type: "ReLU"
  bottom: "conv3_2"
  top: "conv3_2"
}
layer {
  name: "conv3_3"
  type: "Convolution"
  bottom: "conv3_2"
  top: "conv3_3"
  param {
    lr_mult: 1
    decay_mult: 1
  }
  param {
    lr_mult: 2
    decay_mult: 0
  }
  convolution_param {
    num_output: 256
    pad: 1
    kernel_size: 3
  }
}
layer {
  name: "relu3_3"
  type: "ReLU"
  bottom: "conv3_3"
  top: "conv3_3"
}
layer {
  name: "pool3"
  type: "Pooling"
  bottom: "conv3_3"
  top: "pool3"
  pooling_param {
    pool: MAX
    kernel_size: 2
    stride: 2
  }
}
layer {
  name: "conv4_1"
  type: "Convolution"
  bottom: "pool3"
  top: "conv4_1"
  param {
    lr_mult: 1
    decay_mult: 1
  }
  param {
    lr_mult: 2
    decay_mult: 0
  }
  convolution_param {
    num_output: 512
    pad: 1
    kernel_size: 3
  }
}
layer {
  name: "relu4_1"
  type: "ReLU"
  bottom: "conv4_1"
  top: "conv4_1"
}
layer {
  name: "conv4_2"
  type: "Convolution"
  bottom: "conv4_1"
  top: "conv4_2"
  param {
    lr_mult: 1
    decay_mult: 1
  }
  param {
    lr_mult: 2
    decay_mult: 0
  }
  convolution_param {
    num_output: 512
    pad: 1
    kernel_size: 3
  }
}
layer {
  name: "relu4_2"
  type: "ReLU"
  bottom: "conv4_2"
  top: "conv4_2"
}
layer {
  name: "conv4_3"
  type: "Convolution"
  bottom: "conv4_2"
  top: "conv4_3"
  param {
    lr_mult: 1
    decay_mult: 1
  }
  param {
    lr_mult: 2
    decay_mult: 0
  }
  convolution_param {
    num_output: 512
    pad: 1
    kernel_size: 3
  }
}
layer {
  name: "relu4_3"
  type: "ReLU"
  bottom: "conv4_3"
  top: "conv4_3"
}
layer {
  name: "pool4"
  type: "Pooling"
  bottom: "conv4_3"
  top: "pool4"
  pooling_param {
    pool: MAX
    kernel_size: 2
    stride: 2
  }
}
layer {
  name: "conv5_1"
  type: "Convolution"
  bottom: "pool4"
  top: "conv5_1"
  param {
    lr_mult: 1
    decay_mult: 1
  }
  param {
    lr_mult: 2
    decay_mult: 0
  }
  convolution_param {
    num_output: 512
    pad: 1
    kernel_size: 3
  }
}
layer {
  name: "relu5_1"
  type: "ReLU"
  bottom: "conv5_1"
  top: "conv5_1"
}
layer {
  name: "conv5_2"
  type: "Convolution"
  bottom: "conv5_1"
  top: "conv5_2"
  param {
    lr_mult: 1
    decay_mult: 1
  }
  param {
    lr_mult: 2
    decay_mult: 0
  }
  convolution_param {
    num_output: 512
    pad: 1
    kernel_size: 3
  }
}
layer {
  name: "relu5_2"
  type: "ReLU"
  bottom: "conv5_2"
  top: "conv5_2"
}
layer {
  name: "conv5_3"
  type: "Convolution"
  bottom: "conv5_2"
  top: "conv5_3"
  param {
    lr_mult: 1
    decay_mult: 1
  }
  param {
    lr_mult: 2
    decay_mult: 0
  }
  convolution_param {
    num_output: 512
    pad: 1
    kernel_size: 3
  }
}
layer {
  name: "relu5_3"
  type: "ReLU"
  bottom: "conv5_3"
  top: "conv5_3"
}
layer {
  name: "CAM_conv"
  type: "Convolution"
  bottom: "conv5_3"
  top: "CAM_conv"
  param {
    lr_mult: 1
    decay_mult: 1
  }
  param {
    lr_mult: 2
    decay_mult: 0
  }
  convolution_param {
    num_output: 1024
    pad: 1
    kernel_size: 3
    group: 2
    weight_filler {
      type: "gaussian"
      std: 0.01
    }
    bias_filler {
      type: "constant"
      value: 0
    }
  }
}
layer {
  name: "CAM_relu"
  type: "ReLU"
  bottom: "CAM_conv"
  top: "CAM_conv"
}
layer {
  name: "CAM_pool"
  type: "Pooling"
  bottom: "CAM_conv"
  top: "CAM_pool"
  pooling_param {
    pool: AVE
    kernel_size: 14
    stride: 14
  }
}
layer {
  name: "CAM_dropout"
  type: "Dropout"
  bottom: "CAM_pool"
  top: "CAM_pool"
  dropout_param {
    dropout_ratio: 0.5
  }
}
layer {
  name: "CAM_pre"
  type: "InnerProduct"
  bottom: "CAM_pool"
  top: "CAM_pre"
  param {
    lr_mult: 10
    decay_mult: 1
  }
  param {
    lr_mult: 20
    decay_mult: 0
  }
  inner_product_param {
    num_output: 1000
    weight_filler {
      type: "gaussian"
      std: 0.01
    }
    bias_filler {
      type: "constant"
      value: 0
    }
  }
}
layer {
  name: "loss"
  type: "SigmoidMultiLabelLoss"
  bottom: "CAM_pre"
  bottom: "label"
  include {
    phase: TRAIN
  }
  include {
    phase: TEST
  }
}
I0806 17:30:10.353966 20798 layer_factory.hpp:77] Creating layer data
I0806 17:30:10.354359 20798 net.cpp:100] Creating Layer data
I0806 17:30:10.354387 20798 net.cpp:408] data -> data
I0806 17:30:10.354414 20798 net.cpp:408] data -> label
I0806 17:30:10.355087 20804 db_lmdb.cpp:35] Opened lmdb /home/lijun/Research/DataSet/ILSVRC2014/ILSVRC2014_DET/image/ilsvrc14_train_lmdb
I0806 17:30:10.362372 20798 data_layer.cpp:45] output data size: 32,3,224,224
I0806 17:30:10.390624 20798 net.cpp:150] Setting up data
I0806 17:30:10.390664 20798 net.cpp:157] Top shape: 32 3 224 224 (4816896)
I0806 17:30:10.390682 20798 net.cpp:157] Top shape: 32 16 1 1 (512)
I0806 17:30:10.390686 20798 net.cpp:165] Memory required for data: 19269632
I0806 17:30:10.390697 20798 layer_factory.hpp:77] Creating layer conv1_1
I0806 17:30:10.390722 20798 net.cpp:100] Creating Layer conv1_1
I0806 17:30:10.390735 20798 net.cpp:434] conv1_1 <- data
I0806 17:30:10.390756 20798 net.cpp:408] conv1_1 -> conv1_1
I0806 17:30:10.394821 20805 blocking_queue.cpp:50] Waiting for data
I0806 17:30:10.515972 20798 net.cpp:150] Setting up conv1_1
I0806 17:30:10.516001 20798 net.cpp:157] Top shape: 32 64 224 224 (102760448)
I0806 17:30:10.516007 20798 net.cpp:165] Memory required for data: 430311424
I0806 17:30:10.516026 20798 layer_factory.hpp:77] Creating layer relu1_1
I0806 17:30:10.516042 20798 net.cpp:100] Creating Layer relu1_1
I0806 17:30:10.516050 20798 net.cpp:434] relu1_1 <- conv1_1
I0806 17:30:10.516058 20798 net.cpp:395] relu1_1 -> conv1_1 (in-place)
I0806 17:30:10.516281 20798 net.cpp:150] Setting up relu1_1
I0806 17:30:10.516294 20798 net.cpp:157] Top shape: 32 64 224 224 (102760448)
I0806 17:30:10.516299 20798 net.cpp:165] Memory required for data: 841353216
I0806 17:30:10.516305 20798 layer_factory.hpp:77] Creating layer conv1_2
I0806 17:30:10.516320 20798 net.cpp:100] Creating Layer conv1_2
I0806 17:30:10.516327 20798 net.cpp:434] conv1_2 <- conv1_1
I0806 17:30:10.516335 20798 net.cpp:408] conv1_2 -> conv1_2
I0806 17:30:10.517052 20798 net.cpp:150] Setting up conv1_2
I0806 17:30:10.517066 20798 net.cpp:157] Top shape: 32 64 224 224 (102760448)
I0806 17:30:10.517072 20798 net.cpp:165] Memory required for data: 1252395008
I0806 17:30:10.517084 20798 layer_factory.hpp:77] Creating layer relu1_2
I0806 17:30:10.517096 20798 net.cpp:100] Creating Layer relu1_2
I0806 17:30:10.517102 20798 net.cpp:434] relu1_2 <- conv1_2
I0806 17:30:10.517110 20798 net.cpp:395] relu1_2 -> conv1_2 (in-place)
I0806 17:30:10.517316 20798 net.cpp:150] Setting up relu1_2
I0806 17:30:10.517328 20798 net.cpp:157] Top shape: 32 64 224 224 (102760448)
I0806 17:30:10.517333 20798 net.cpp:165] Memory required for data: 1663436800
I0806 17:30:10.517339 20798 layer_factory.hpp:77] Creating layer pool1
I0806 17:30:10.517354 20798 net.cpp:100] Creating Layer pool1
I0806 17:30:10.517360 20798 net.cpp:434] pool1 <- conv1_2
I0806 17:30:10.517369 20798 net.cpp:408] pool1 -> pool1
I0806 17:30:10.517416 20798 net.cpp:150] Setting up pool1
I0806 17:30:10.517426 20798 net.cpp:157] Top shape: 32 64 112 112 (25690112)
I0806 17:30:10.517431 20798 net.cpp:165] Memory required for data: 1766197248
I0806 17:30:10.517437 20798 layer_factory.hpp:77] Creating layer conv2_1
I0806 17:30:10.517448 20798 net.cpp:100] Creating Layer conv2_1
I0806 17:30:10.517454 20798 net.cpp:434] conv2_1 <- pool1
I0806 17:30:10.517464 20798 net.cpp:408] conv2_1 -> conv2_1
I0806 17:30:10.518782 20798 net.cpp:150] Setting up conv2_1
I0806 17:30:10.518796 20798 net.cpp:157] Top shape: 32 128 112 112 (51380224)
I0806 17:30:10.518802 20798 net.cpp:165] Memory required for data: 1971718144
I0806 17:30:10.518815 20798 layer_factory.hpp:77] Creating layer relu2_1
I0806 17:30:10.518824 20798 net.cpp:100] Creating Layer relu2_1
I0806 17:30:10.518831 20798 net.cpp:434] relu2_1 <- conv2_1
I0806 17:30:10.518843 20798 net.cpp:395] relu2_1 -> conv2_1 (in-place)
I0806 17:30:10.518973 20798 net.cpp:150] Setting up relu2_1
I0806 17:30:10.518985 20798 net.cpp:157] Top shape: 32 128 112 112 (51380224)
I0806 17:30:10.518992 20798 net.cpp:165] Memory required for data: 2177239040
I0806 17:30:10.518997 20798 layer_factory.hpp:77] Creating layer conv2_2
I0806 17:30:10.519011 20798 net.cpp:100] Creating Layer conv2_2
I0806 17:30:10.519016 20798 net.cpp:434] conv2_2 <- conv2_1
I0806 17:30:10.519026 20798 net.cpp:408] conv2_2 -> conv2_2
I0806 17:30:10.519781 20798 net.cpp:150] Setting up conv2_2
I0806 17:30:10.519795 20798 net.cpp:157] Top shape: 32 128 112 112 (51380224)
I0806 17:30:10.519803 20798 net.cpp:165] Memory required for data: 2382759936
I0806 17:30:10.519811 20798 layer_factory.hpp:77] Creating layer relu2_2
I0806 17:30:10.519832 20798 net.cpp:100] Creating Layer relu2_2
I0806 17:30:10.519843 20798 net.cpp:434] relu2_2 <- conv2_2
I0806 17:30:10.519852 20798 net.cpp:395] relu2_2 -> conv2_2 (in-place)
I0806 17:30:10.520063 20798 net.cpp:150] Setting up relu2_2
I0806 17:30:10.520076 20798 net.cpp:157] Top shape: 32 128 112 112 (51380224)
I0806 17:30:10.520081 20798 net.cpp:165] Memory required for data: 2588280832
I0806 17:30:10.520087 20798 layer_factory.hpp:77] Creating layer pool2
I0806 17:30:10.520097 20798 net.cpp:100] Creating Layer pool2
I0806 17:30:10.520102 20798 net.cpp:434] pool2 <- conv2_2
I0806 17:30:10.520109 20798 net.cpp:408] pool2 -> pool2
I0806 17:30:10.520149 20798 net.cpp:150] Setting up pool2
I0806 17:30:10.520159 20798 net.cpp:157] Top shape: 32 128 56 56 (12845056)
I0806 17:30:10.520164 20798 net.cpp:165] Memory required for data: 2639661056
I0806 17:30:10.520170 20798 layer_factory.hpp:77] Creating layer conv3_1
I0806 17:30:10.520182 20798 net.cpp:100] Creating Layer conv3_1
I0806 17:30:10.520189 20798 net.cpp:434] conv3_1 <- pool2
I0806 17:30:10.520198 20798 net.cpp:408] conv3_1 -> conv3_1
I0806 17:30:10.521244 20798 net.cpp:150] Setting up conv3_1
I0806 17:30:10.521256 20798 net.cpp:157] Top shape: 32 256 56 56 (25690112)
I0806 17:30:10.521263 20798 net.cpp:165] Memory required for data: 2742421504
I0806 17:30:10.521275 20798 layer_factory.hpp:77] Creating layer relu3_1
I0806 17:30:10.521286 20798 net.cpp:100] Creating Layer relu3_1
I0806 17:30:10.521292 20798 net.cpp:434] relu3_1 <- conv3_1
I0806 17:30:10.521299 20798 net.cpp:395] relu3_1 -> conv3_1 (in-place)
I0806 17:30:10.521509 20798 net.cpp:150] Setting up relu3_1
I0806 17:30:10.521522 20798 net.cpp:157] Top shape: 32 256 56 56 (25690112)
I0806 17:30:10.521528 20798 net.cpp:165] Memory required for data: 2845181952
I0806 17:30:10.521534 20798 layer_factory.hpp:77] Creating layer conv3_2
I0806 17:30:10.521544 20798 net.cpp:100] Creating Layer conv3_2
I0806 17:30:10.521550 20798 net.cpp:434] conv3_2 <- conv3_1
I0806 17:30:10.521561 20798 net.cpp:408] conv3_2 -> conv3_2
I0806 17:30:10.523008 20798 net.cpp:150] Setting up conv3_2
I0806 17:30:10.523021 20798 net.cpp:157] Top shape: 32 256 56 56 (25690112)
I0806 17:30:10.523028 20798 net.cpp:165] Memory required for data: 2947942400
I0806 17:30:10.523037 20798 layer_factory.hpp:77] Creating layer relu3_2
I0806 17:30:10.523046 20798 net.cpp:100] Creating Layer relu3_2
I0806 17:30:10.523052 20798 net.cpp:434] relu3_2 <- conv3_2
I0806 17:30:10.523062 20798 net.cpp:395] relu3_2 -> conv3_2 (in-place)
I0806 17:30:10.523192 20798 net.cpp:150] Setting up relu3_2
I0806 17:30:10.523202 20798 net.cpp:157] Top shape: 32 256 56 56 (25690112)
I0806 17:30:10.523208 20798 net.cpp:165] Memory required for data: 3050702848
I0806 17:30:10.523214 20798 layer_factory.hpp:77] Creating layer conv3_3
I0806 17:30:10.523226 20798 net.cpp:100] Creating Layer conv3_3
I0806 17:30:10.523232 20798 net.cpp:434] conv3_3 <- conv3_2
I0806 17:30:10.523241 20798 net.cpp:408] conv3_3 -> conv3_3
I0806 17:30:10.524771 20798 net.cpp:150] Setting up conv3_3
I0806 17:30:10.524786 20798 net.cpp:157] Top shape: 32 256 56 56 (25690112)
I0806 17:30:10.524793 20798 net.cpp:165] Memory required for data: 3153463296
I0806 17:30:10.524802 20798 layer_factory.hpp:77] Creating layer relu3_3
I0806 17:30:10.524813 20798 net.cpp:100] Creating Layer relu3_3
I0806 17:30:10.524821 20798 net.cpp:434] relu3_3 <- conv3_3
I0806 17:30:10.524828 20798 net.cpp:395] relu3_3 -> conv3_3 (in-place)
I0806 17:30:10.525058 20798 net.cpp:150] Setting up relu3_3
I0806 17:30:10.525070 20798 net.cpp:157] Top shape: 32 256 56 56 (25690112)
I0806 17:30:10.525076 20798 net.cpp:165] Memory required for data: 3256223744
I0806 17:30:10.525082 20798 layer_factory.hpp:77] Creating layer pool3
I0806 17:30:10.525094 20798 net.cpp:100] Creating Layer pool3
I0806 17:30:10.525099 20798 net.cpp:434] pool3 <- conv3_3
I0806 17:30:10.525109 20798 net.cpp:408] pool3 -> pool3
I0806 17:30:10.525149 20798 net.cpp:150] Setting up pool3
I0806 17:30:10.525158 20798 net.cpp:157] Top shape: 32 256 28 28 (6422528)
I0806 17:30:10.525177 20798 net.cpp:165] Memory required for data: 3281913856
I0806 17:30:10.525183 20798 layer_factory.hpp:77] Creating layer conv4_1
I0806 17:30:10.525195 20798 net.cpp:100] Creating Layer conv4_1
I0806 17:30:10.525202 20798 net.cpp:434] conv4_1 <- pool3
I0806 17:30:10.525209 20798 net.cpp:408] conv4_1 -> conv4_1
I0806 17:30:10.527536 20798 net.cpp:150] Setting up conv4_1
I0806 17:30:10.527557 20798 net.cpp:157] Top shape: 32 512 28 28 (12845056)
I0806 17:30:10.527564 20798 net.cpp:165] Memory required for data: 3333294080
I0806 17:30:10.527575 20798 layer_factory.hpp:77] Creating layer relu4_1
I0806 17:30:10.527585 20798 net.cpp:100] Creating Layer relu4_1
I0806 17:30:10.527592 20798 net.cpp:434] relu4_1 <- conv4_1
I0806 17:30:10.527602 20798 net.cpp:395] relu4_1 -> conv4_1 (in-place)
I0806 17:30:10.527817 20798 net.cpp:150] Setting up relu4_1
I0806 17:30:10.527829 20798 net.cpp:157] Top shape: 32 512 28 28 (12845056)
I0806 17:30:10.527835 20798 net.cpp:165] Memory required for data: 3384674304
I0806 17:30:10.527842 20798 layer_factory.hpp:77] Creating layer conv4_2
I0806 17:30:10.527854 20798 net.cpp:100] Creating Layer conv4_2
I0806 17:30:10.527860 20798 net.cpp:434] conv4_2 <- conv4_1
I0806 17:30:10.527871 20798 net.cpp:408] conv4_2 -> conv4_2
I0806 17:30:10.532086 20798 net.cpp:150] Setting up conv4_2
I0806 17:30:10.532114 20798 net.cpp:157] Top shape: 32 512 28 28 (12845056)
I0806 17:30:10.532119 20798 net.cpp:165] Memory required for data: 3436054528
I0806 17:30:10.532135 20798 layer_factory.hpp:77] Creating layer relu4_2
I0806 17:30:10.532146 20798 net.cpp:100] Creating Layer relu4_2
I0806 17:30:10.532153 20798 net.cpp:434] relu4_2 <- conv4_2
I0806 17:30:10.532165 20798 net.cpp:395] relu4_2 -> conv4_2 (in-place)
I0806 17:30:10.532301 20798 net.cpp:150] Setting up relu4_2
I0806 17:30:10.532312 20798 net.cpp:157] Top shape: 32 512 28 28 (12845056)
I0806 17:30:10.532317 20798 net.cpp:165] Memory required for data: 3487434752
I0806 17:30:10.532323 20798 layer_factory.hpp:77] Creating layer conv4_3
I0806 17:30:10.532337 20798 net.cpp:100] Creating Layer conv4_3
I0806 17:30:10.532343 20798 net.cpp:434] conv4_3 <- conv4_2
I0806 17:30:10.532353 20798 net.cpp:408] conv4_3 -> conv4_3
I0806 17:30:10.536453 20798 net.cpp:150] Setting up conv4_3
I0806 17:30:10.536484 20798 net.cpp:157] Top shape: 32 512 28 28 (12845056)
I0806 17:30:10.536489 20798 net.cpp:165] Memory required for data: 3538814976
I0806 17:30:10.536499 20798 layer_factory.hpp:77] Creating layer relu4_3
I0806 17:30:10.536510 20798 net.cpp:100] Creating Layer relu4_3
I0806 17:30:10.536516 20798 net.cpp:434] relu4_3 <- conv4_3
I0806 17:30:10.536527 20798 net.cpp:395] relu4_3 -> conv4_3 (in-place)
I0806 17:30:10.536746 20798 net.cpp:150] Setting up relu4_3
I0806 17:30:10.536758 20798 net.cpp:157] Top shape: 32 512 28 28 (12845056)
I0806 17:30:10.536764 20798 net.cpp:165] Memory required for data: 3590195200
I0806 17:30:10.536770 20798 layer_factory.hpp:77] Creating layer pool4
I0806 17:30:10.536782 20798 net.cpp:100] Creating Layer pool4
I0806 17:30:10.536787 20798 net.cpp:434] pool4 <- conv4_3
I0806 17:30:10.536795 20798 net.cpp:408] pool4 -> pool4
I0806 17:30:10.536837 20798 net.cpp:150] Setting up pool4
I0806 17:30:10.536847 20798 net.cpp:157] Top shape: 32 512 14 14 (3211264)
I0806 17:30:10.536852 20798 net.cpp:165] Memory required for data: 3603040256
I0806 17:30:10.536859 20798 layer_factory.hpp:77] Creating layer conv5_1
I0806 17:30:10.536871 20798 net.cpp:100] Creating Layer conv5_1
I0806 17:30:10.536877 20798 net.cpp:434] conv5_1 <- pool4
I0806 17:30:10.536885 20798 net.cpp:408] conv5_1 -> conv5_1
I0806 17:30:10.540897 20798 net.cpp:150] Setting up conv5_1
I0806 17:30:10.540944 20798 net.cpp:157] Top shape: 32 512 14 14 (3211264)
I0806 17:30:10.540951 20798 net.cpp:165] Memory required for data: 3615885312
I0806 17:30:10.540962 20798 layer_factory.hpp:77] Creating layer relu5_1
I0806 17:30:10.540974 20798 net.cpp:100] Creating Layer relu5_1
I0806 17:30:10.540982 20798 net.cpp:434] relu5_1 <- conv5_1
I0806 17:30:10.540990 20798 net.cpp:395] relu5_1 -> conv5_1 (in-place)
I0806 17:30:10.541218 20798 net.cpp:150] Setting up relu5_1
I0806 17:30:10.541230 20798 net.cpp:157] Top shape: 32 512 14 14 (3211264)
I0806 17:30:10.541237 20798 net.cpp:165] Memory required for data: 3628730368
I0806 17:30:10.541244 20798 layer_factory.hpp:77] Creating layer conv5_2
I0806 17:30:10.541256 20798 net.cpp:100] Creating Layer conv5_2
I0806 17:30:10.541263 20798 net.cpp:434] conv5_2 <- conv5_1
I0806 17:30:10.541272 20798 net.cpp:408] conv5_2 -> conv5_2
I0806 17:30:10.546869 20798 net.cpp:150] Setting up conv5_2
I0806 17:30:10.546895 20798 net.cpp:157] Top shape: 32 512 14 14 (3211264)
I0806 17:30:10.546902 20798 net.cpp:165] Memory required for data: 3641575424
I0806 17:30:10.546912 20798 layer_factory.hpp:77] Creating layer relu5_2
I0806 17:30:10.546926 20798 net.cpp:100] Creating Layer relu5_2
I0806 17:30:10.546933 20798 net.cpp:434] relu5_2 <- conv5_2
I0806 17:30:10.546942 20798 net.cpp:395] relu5_2 -> conv5_2 (in-place)
I0806 17:30:10.547073 20798 net.cpp:150] Setting up relu5_2
I0806 17:30:10.547085 20798 net.cpp:157] Top shape: 32 512 14 14 (3211264)
I0806 17:30:10.547091 20798 net.cpp:165] Memory required for data: 3654420480
I0806 17:30:10.547096 20798 layer_factory.hpp:77] Creating layer conv5_3
I0806 17:30:10.547109 20798 net.cpp:100] Creating Layer conv5_3
I0806 17:30:10.547116 20798 net.cpp:434] conv5_3 <- conv5_2
I0806 17:30:10.547125 20798 net.cpp:408] conv5_3 -> conv5_3
I0806 17:30:10.551244 20798 net.cpp:150] Setting up conv5_3
I0806 17:30:10.551272 20798 net.cpp:157] Top shape: 32 512 14 14 (3211264)
I0806 17:30:10.551278 20798 net.cpp:165] Memory required for data: 3667265536
I0806 17:30:10.551290 20798 layer_factory.hpp:77] Creating layer relu5_3
I0806 17:30:10.551307 20798 net.cpp:100] Creating Layer relu5_3
I0806 17:30:10.551316 20798 net.cpp:434] relu5_3 <- conv5_3
I0806 17:30:10.551326 20798 net.cpp:395] relu5_3 -> conv5_3 (in-place)
I0806 17:30:10.551554 20798 net.cpp:150] Setting up relu5_3
I0806 17:30:10.551566 20798 net.cpp:157] Top shape: 32 512 14 14 (3211264)
I0806 17:30:10.551573 20798 net.cpp:165] Memory required for data: 3680110592
I0806 17:30:10.551578 20798 layer_factory.hpp:77] Creating layer CAM_conv
I0806 17:30:10.551594 20798 net.cpp:100] Creating Layer CAM_conv
I0806 17:30:10.551600 20798 net.cpp:434] CAM_conv <- conv5_3
I0806 17:30:10.551611 20798 net.cpp:408] CAM_conv -> CAM_conv
I0806 17:30:10.607810 20798 net.cpp:150] Setting up CAM_conv
I0806 17:30:10.607836 20798 net.cpp:157] Top shape: 32 1024 14 14 (6422528)
I0806 17:30:10.607843 20798 net.cpp:165] Memory required for data: 3705800704
I0806 17:30:10.607853 20798 layer_factory.hpp:77] Creating layer CAM_relu
I0806 17:30:10.607872 20798 net.cpp:100] Creating Layer CAM_relu
I0806 17:30:10.607878 20798 net.cpp:434] CAM_relu <- CAM_conv
I0806 17:30:10.607889 20798 net.cpp:395] CAM_relu -> CAM_conv (in-place)
I0806 17:30:10.608109 20798 net.cpp:150] Setting up CAM_relu
I0806 17:30:10.608121 20798 net.cpp:157] Top shape: 32 1024 14 14 (6422528)
I0806 17:30:10.608127 20798 net.cpp:165] Memory required for data: 3731490816
I0806 17:30:10.608134 20798 layer_factory.hpp:77] Creating layer CAM_pool
I0806 17:30:10.608144 20798 net.cpp:100] Creating Layer CAM_pool
I0806 17:30:10.608150 20798 net.cpp:434] CAM_pool <- CAM_conv
I0806 17:30:10.608160 20798 net.cpp:408] CAM_pool -> CAM_pool
I0806 17:30:10.608314 20798 net.cpp:150] Setting up CAM_pool
I0806 17:30:10.608325 20798 net.cpp:157] Top shape: 32 1024 1 1 (32768)
I0806 17:30:10.608330 20798 net.cpp:165] Memory required for data: 3731621888
I0806 17:30:10.608336 20798 layer_factory.hpp:77] Creating layer CAM_dropout
I0806 17:30:10.608346 20798 net.cpp:100] Creating Layer CAM_dropout
I0806 17:30:10.608352 20798 net.cpp:434] CAM_dropout <- CAM_pool
I0806 17:30:10.608361 20798 net.cpp:395] CAM_dropout -> CAM_pool (in-place)
I0806 17:30:10.608392 20798 net.cpp:150] Setting up CAM_dropout
I0806 17:30:10.608400 20798 net.cpp:157] Top shape: 32 1024 1 1 (32768)
I0806 17:30:10.608407 20798 net.cpp:165] Memory required for data: 3731752960
I0806 17:30:10.608430 20798 layer_factory.hpp:77] Creating layer CAM_pre
I0806 17:30:10.608446 20798 net.cpp:100] Creating Layer CAM_pre
I0806 17:30:10.608454 20798 net.cpp:434] CAM_pre <- CAM_pool
I0806 17:30:10.608467 20798 net.cpp:408] CAM_pre -> CAM_pre
I0806 17:30:10.631150 20798 net.cpp:150] Setting up CAM_pre
I0806 17:30:10.631172 20798 net.cpp:157] Top shape: 32 1000 (32000)
I0806 17:30:10.631178 20798 net.cpp:165] Memory required for data: 3731880960
I0806 17:30:10.631189 20798 layer_factory.hpp:77] Creating layer loss
I0806 17:30:10.631201 20798 net.cpp:100] Creating Layer loss
I0806 17:30:10.631207 20798 net.cpp:434] loss <- CAM_pre
I0806 17:30:10.631216 20798 net.cpp:434] loss <- label
I0806 17:30:10.631227 20798 net.cpp:408] loss -> (automatic)
I0806 17:30:10.631248 20798 layer_factory.hpp:77] Creating layer loss
…
