…
I0807 13:23:13.104106  1240 net.cpp:58] Initializing net from parameters: 
name: "VGG_ILSVRC_16_layers"
state {
  phase: TRAIN
  level: 0
  stage: ""
}
layer {
  name: "data"
  type: "Data"
  top: "data"
  top: "label"
  include {
    phase: TRAIN
  }
  transform_param {
    mirror: true
    crop_size: 224
    mean_value: 103.939
    mean_value: 116.779
    mean_value: 123.68
  }
  data_param {
    source: "/home/lijun/Research/DataSet/ILSVRC2014/ILSVRC2014_DET/image/ilsvrc14_train_lmdb"
    batch_size: 32
    backend: LMDB
    multi_label: true
    label_size: 16
  }
}
layer {
  name: "conv1_1"
  type: "Convolution"
  bottom: "data"
  top: "conv1_1"
  param {
    lr_mult: 1
    decay_mult: 1
  }
  param {
    lr_mult: 2
    decay_mult: 0
  }
  convolution_param {
    num_output: 64
    pad: 1
    kernel_size: 3
  }
}
layer {
  name: "relu1_1"
  type: "ReLU"
  bottom: "conv1_1"
  top: "conv1_1"
}
layer {
  name: "conv1_2"
  type: "Convolution"
  bottom: "conv1_1"
  top: "conv1_2"
  param {
    lr_mult: 1
    decay_mult: 1
  }
  param {
    lr_mult: 2
    decay_mult: 0
  }
  convolution_param {
    num_output: 64
    pad: 1
    kernel_size: 3
  }
}
layer {
  name: "relu1_2"
  type: "ReLU"
  bottom: "conv1_2"
  top: "conv1_2"
}
layer {
  name: "pool1"
  type: "Pooling"
  bottom: "conv1_2"
  top: "pool1"
  pooling_param {
    pool: MAX
    kernel_size: 2
    stride: 2
  }
}
layer {
  name: "conv2_1"
  type: "Convolution"
  bottom: "pool1"
  top: "conv2_1"
  param {
    lr_mult: 1
    decay_mult: 1
  }
  param {
    lr_mult: 2
    decay_mult: 0
  }
  convolution_param {
    num_output: 128
    pad: 1
    kernel_size: 3
  }
}
layer {
  name: "relu2_1"
  type: "ReLU"
  bottom: "conv2_1"
  top: "conv2_1"
}
layer {
  name: "conv2_2"
  type: "Convolution"
  bottom: "conv2_1"
  top: "conv2_2"
  param {
    lr_mult: 1
    decay_mult: 1
  }
  param {
    lr_mult: 2
    decay_mult: 0
  }
  convolution_param {
    num_output: 128
    pad: 1
    kernel_size: 3
  }
}
layer {
  name: "relu2_2"
  type: "ReLU"
  bottom: "conv2_2"
  top: "conv2_2"
}
layer {
  name: "pool2"
  type: "Pooling"
  bottom: "conv2_2"
  top: "pool2"
  pooling_param {
    pool: MAX
    kernel_size: 2
    stride: 2
  }
}
layer {
  name: "conv3_1"
  type: "Convolution"
  bottom: "pool2"
  top: "conv3_1"
  param {
    lr_mult: 1
    decay_mult: 1
  }
  param {
    lr_mult: 2
    decay_mult: 0
  }
  convolution_param {
    num_output: 256
    pad: 1
    kernel_size: 3
  }
}
layer {
  name: "relu3_1"
  type: "ReLU"
  bottom: "conv3_1"
  top: "conv3_1"
}
layer {
  name: "conv3_2"
  type: "Convolution"
  bottom: "conv3_1"
  top: "conv3_2"
  param {
    lr_mult: 1
    decay_mult: 1
  }
  param {
    lr_mult: 2
    decay_mult: 0
  }
  convolution_param {
    num_output: 256
    pad: 1
    kernel_size: 3
  }
}
layer {
  name: "relu3_2"
  type: "ReLU"
  bottom: "conv3_2"
  top: "conv3_2"
}
layer {
  name: "conv3_3"
  type: "Convolution"
  bottom: "conv3_2"
  top: "conv3_3"
  param {
    lr_mult: 1
    decay_mult: 1
  }
  param {
    lr_mult: 2
    decay_mult: 0
  }
  convolution_param {
    num_output: 256
    pad: 1
    kernel_size: 3
  }
}
layer {
  name: "relu3_3"
  type: "ReLU"
  bottom: "conv3_3"
  top: "conv3_3"
}
layer {
  name: "pool3"
  type: "Pooling"
  bottom: "conv3_3"
  top: "pool3"
  pooling_param {
    pool: MAX
    kernel_size: 2
    stride: 2
  }
}
layer {
  name: "conv4_1"
  type: "Convolution"
  bottom: "pool3"
  top: "conv4_1"
  param {
    lr_mult: 1
    decay_mult: 1
  }
  param {
    lr_mult: 2
    decay_mult: 0
  }
  convolution_param {
    num_output: 512
    pad: 1
    kernel_size: 3
  }
}
layer {
  name: "relu4_1"
  type: "ReLU"
  bottom: "conv4_1"
  top: "conv4_1"
}
layer {
  name: "conv4_2"
  type: "Convolution"
  bottom: "conv4_1"
  top: "conv4_2"
  param {
    lr_mult: 1
    decay_mult: 1
  }
  param {
    lr_mult: 2
    decay_mult: 0
  }
  convolution_param {
    num_output: 512
    pad: 1
    kernel_size: 3
  }
}
layer {
  name: "relu4_2"
  type: "ReLU"
  bottom: "conv4_2"
  top: "conv4_2"
}
layer {
  name: "conv4_3"
  type: "Convolution"
  bottom: "conv4_2"
  top: "conv4_3"
  param {
    lr_mult: 1
    decay_mult: 1
  }
  param {
    lr_mult: 2
    decay_mult: 0
  }
  convolution_param {
    num_output: 512
    pad: 1
    kernel_size: 3
  }
}
layer {
  name: "relu4_3"
  type: "ReLU"
  bottom: "conv4_3"
  top: "conv4_3"
}
layer {
  name: "pool4"
  type: "Pooling"
  bottom: "conv4_3"
  top: "pool4"
  pooling_param {
    pool: MAX
    kernel_size: 2
    stride: 2
  }
}
layer {
  name: "conv5_1"
  type: "Convolution"
  bottom: "pool4"
  top: "conv5_1"
  param {
    lr_mult: 1
    decay_mult: 1
  }
  param {
    lr_mult: 2
    decay_mult: 0
  }
  convolution_param {
    num_output: 512
    pad: 1
    kernel_size: 3
  }
}
layer {
  name: "relu5_1"
  type: "ReLU"
  bottom: "conv5_1"
  top: "conv5_1"
}
layer {
  name: "conv5_2"
  type: "Convolution"
  bottom: "conv5_1"
  top: "conv5_2"
  param {
    lr_mult: 1
    decay_mult: 1
  }
  param {
    lr_mult: 2
    decay_mult: 0
  }
  convolution_param {
    num_output: 512
    pad: 1
    kernel_size: 3
  }
}
layer {
  name: "relu5_2"
  type: "ReLU"
  bottom: "conv5_2"
  top: "conv5_2"
}
layer {
  name: "conv5_3"
  type: "Convolution"
  bottom: "conv5_2"
  top: "conv5_3"
  param {
    lr_mult: 1
    decay_mult: 1
  }
  param {
    lr_mult: 2
    decay_mult: 0
  }
  convolution_param {
    num_output: 512
    pad: 1
    kernel_size: 3
  }
}
layer {
  name: "relu5_3"
  type: "ReLU"
  bottom: "conv5_3"
  top: "conv5_3"
}
layer {
  name: "CAM_conv"
  type: "Convolution"
  bottom: "conv5_3"
  top: "CAM_conv"
  param {
    lr_mult: 1
    decay_mult: 1
  }
  param {
    lr_mult: 2
    decay_mult: 0
  }
  convolution_param {
    num_output: 1024
    pad: 1
    kernel_size: 3
    group: 2
    weight_filler {
      type: "gaussian"
      std: 0.01
    }
    bias_filler {
      type: "constant"
      value: 0
    }
  }
}
layer {
  name: "CAM_relu"
  type: "ReLU"
  bottom: "CAM_conv"
  top: "CAM_conv"
}
layer {
  name: "CAM_pool"
  type: "Pooling"
  bottom: "CAM_conv"
  top: "CAM_pool"
  pooling_param {
    pool: AVE
    kernel_size: 14
    stride: 14
  }
}
layer {
  name: "CAM_dropout"
  type: "Dropout"
  bottom: "CAM_pool"
  top: "CAM_pool"
  dropout_param {
    dropout_ratio: 0.5
  }
}
layer {
  name: "CAM_pre"
  type: "InnerProduct"
  bottom: "CAM_pool"
  top: "CAM_pre"
  param {
    lr_mult: 10
    decay_mult: 1
  }
  param {
    lr_mult: 20
    decay_mult: 0
  }
  inner_product_param {
    num_output: 1000
    weight_filler {
      type: "gaussian"
      std: 0.01
    }
    bias_filler {
      type: "constant"
      value: 0
    }
  }
}
layer {
  name: "loss"
  type: "SigmoidMultiLabelLoss"
  bottom: "CAM_pre"
  bottom: "label"
  include {
    phase: TRAIN
  }
  include {
    phase: TEST
  }
}
I0807 13:23:13.104224  1240 layer_factory.hpp:77] Creating layer data
I0807 13:23:13.104620  1240 net.cpp:100] Creating Layer data
I0807 13:23:13.104647  1240 net.cpp:408] data -> data
I0807 13:23:13.104676  1240 net.cpp:408] data -> label
I0807 13:23:13.126901  1248 db_lmdb.cpp:35] Opened lmdb /home/lijun/Research/DataSet/ILSVRC2014/ILSVRC2014_DET/image/ilsvrc14_train_lmdb
I0807 13:23:13.142285  1240 data_layer.cpp:45] output data size: 32,3,224,224
I0807 13:23:13.168648  1240 net.cpp:150] Setting up data
I0807 13:23:13.168685  1240 net.cpp:157] Top shape: 32 3 224 224 (4816896)
I0807 13:23:13.168710  1240 net.cpp:157] Top shape: 32 16 1 1 (512)
I0807 13:23:13.168715  1240 net.cpp:165] Memory required for data: 19269632
I0807 13:23:13.168721  1240 layer_factory.hpp:77] Creating layer conv1_1
I0807 13:23:13.168743  1240 net.cpp:100] Creating Layer conv1_1
I0807 13:23:13.168750  1240 net.cpp:434] conv1_1 <- data
I0807 13:23:13.168761  1240 net.cpp:408] conv1_1 -> conv1_1
I0807 13:23:13.175940  1249 blocking_queue.cpp:50] Waiting for data
I0807 13:23:13.323447  1240 net.cpp:150] Setting up conv1_1
I0807 13:23:13.323475  1240 net.cpp:157] Top shape: 32 64 224 224 (102760448)
I0807 13:23:13.323482  1240 net.cpp:165] Memory required for data: 430311424
I0807 13:23:13.323501  1240 layer_factory.hpp:77] Creating layer relu1_1
I0807 13:23:13.323515  1240 net.cpp:100] Creating Layer relu1_1
I0807 13:23:13.323523  1240 net.cpp:434] relu1_1 <- conv1_1
I0807 13:23:13.323531  1240 net.cpp:395] relu1_1 -> conv1_1 (in-place)
I0807 13:23:13.323741  1240 net.cpp:150] Setting up relu1_1
I0807 13:23:13.323753  1240 net.cpp:157] Top shape: 32 64 224 224 (102760448)
I0807 13:23:13.323760  1240 net.cpp:165] Memory required for data: 841353216
I0807 13:23:13.323765  1240 layer_factory.hpp:77] Creating layer conv1_2
I0807 13:23:13.323777  1240 net.cpp:100] Creating Layer conv1_2
I0807 13:23:13.323784  1240 net.cpp:434] conv1_2 <- conv1_1
I0807 13:23:13.323792  1240 net.cpp:408] conv1_2 -> conv1_2
I0807 13:23:13.324460  1240 net.cpp:150] Setting up conv1_2
I0807 13:23:13.324472  1240 net.cpp:157] Top shape: 32 64 224 224 (102760448)
I0807 13:23:13.324478  1240 net.cpp:165] Memory required for data: 1252395008
I0807 13:23:13.324491  1240 layer_factory.hpp:77] Creating layer relu1_2
I0807 13:23:13.324501  1240 net.cpp:100] Creating Layer relu1_2
I0807 13:23:13.324507  1240 net.cpp:434] relu1_2 <- conv1_2
I0807 13:23:13.324514  1240 net.cpp:395] relu1_2 -> conv1_2 (in-place)
I0807 13:23:13.324705  1240 net.cpp:150] Setting up relu1_2
I0807 13:23:13.324717  1240 net.cpp:157] Top shape: 32 64 224 224 (102760448)
I0807 13:23:13.324723  1240 net.cpp:165] Memory required for data: 1663436800
I0807 13:23:13.324728  1240 layer_factory.hpp:77] Creating layer pool1
I0807 13:23:13.324740  1240 net.cpp:100] Creating Layer pool1
I0807 13:23:13.324746  1240 net.cpp:434] pool1 <- conv1_2
I0807 13:23:13.324755  1240 net.cpp:408] pool1 -> pool1
I0807 13:23:13.324798  1240 net.cpp:150] Setting up pool1
I0807 13:23:13.324808  1240 net.cpp:157] Top shape: 32 64 112 112 (25690112)
I0807 13:23:13.324815  1240 net.cpp:165] Memory required for data: 1766197248
I0807 13:23:13.324820  1240 layer_factory.hpp:77] Creating layer conv2_1
I0807 13:23:13.324831  1240 net.cpp:100] Creating Layer conv2_1
I0807 13:23:13.324836  1240 net.cpp:434] conv2_1 <- pool1
I0807 13:23:13.324844  1240 net.cpp:408] conv2_1 -> conv2_1
I0807 13:23:13.326159  1240 net.cpp:150] Setting up conv2_1
I0807 13:23:13.326171  1240 net.cpp:157] Top shape: 32 128 112 112 (51380224)
I0807 13:23:13.326179  1240 net.cpp:165] Memory required for data: 1971718144
I0807 13:23:13.326191  1240 layer_factory.hpp:77] Creating layer relu2_1
I0807 13:23:13.326200  1240 net.cpp:100] Creating Layer relu2_1
I0807 13:23:13.326206  1240 net.cpp:434] relu2_1 <- conv2_1
I0807 13:23:13.326215  1240 net.cpp:395] relu2_1 -> conv2_1 (in-place)
I0807 13:23:13.326334  1240 net.cpp:150] Setting up relu2_1
I0807 13:23:13.326344  1240 net.cpp:157] Top shape: 32 128 112 112 (51380224)
I0807 13:23:13.326350  1240 net.cpp:165] Memory required for data: 2177239040
I0807 13:23:13.326356  1240 layer_factory.hpp:77] Creating layer conv2_2
I0807 13:23:13.326369  1240 net.cpp:100] Creating Layer conv2_2
I0807 13:23:13.326375  1240 net.cpp:434] conv2_2 <- conv2_1
I0807 13:23:13.326382  1240 net.cpp:408] conv2_2 -> conv2_2
I0807 13:23:13.327100  1240 net.cpp:150] Setting up conv2_2
I0807 13:23:13.327113  1240 net.cpp:157] Top shape: 32 128 112 112 (51380224)
I0807 13:23:13.327119  1240 net.cpp:165] Memory required for data: 2382759936
I0807 13:23:13.327128  1240 layer_factory.hpp:77] Creating layer relu2_2
I0807 13:23:13.327157  1240 net.cpp:100] Creating Layer relu2_2
I0807 13:23:13.327165  1240 net.cpp:434] relu2_2 <- conv2_2
I0807 13:23:13.327173  1240 net.cpp:395] relu2_2 -> conv2_2 (in-place)
I0807 13:23:13.327390  1240 net.cpp:150] Setting up relu2_2
I0807 13:23:13.327401  1240 net.cpp:157] Top shape: 32 128 112 112 (51380224)
I0807 13:23:13.327409  1240 net.cpp:165] Memory required for data: 2588280832
I0807 13:23:13.327414  1240 layer_factory.hpp:77] Creating layer pool2
I0807 13:23:13.327424  1240 net.cpp:100] Creating Layer pool2
I0807 13:23:13.327428  1240 net.cpp:434] pool2 <- conv2_2
I0807 13:23:13.327436  1240 net.cpp:408] pool2 -> pool2
I0807 13:23:13.327476  1240 net.cpp:150] Setting up pool2
I0807 13:23:13.327483  1240 net.cpp:157] Top shape: 32 128 56 56 (12845056)
I0807 13:23:13.327489  1240 net.cpp:165] Memory required for data: 2639661056
I0807 13:23:13.327494  1240 layer_factory.hpp:77] Creating layer conv3_1
I0807 13:23:13.327505  1240 net.cpp:100] Creating Layer conv3_1
I0807 13:23:13.327512  1240 net.cpp:434] conv3_1 <- pool2
I0807 13:23:13.327522  1240 net.cpp:408] conv3_1 -> conv3_1
I0807 13:23:13.328558  1240 net.cpp:150] Setting up conv3_1
I0807 13:23:13.328570  1240 net.cpp:157] Top shape: 32 256 56 56 (25690112)
I0807 13:23:13.328577  1240 net.cpp:165] Memory required for data: 2742421504
I0807 13:23:13.328591  1240 layer_factory.hpp:77] Creating layer relu3_1
I0807 13:23:13.328601  1240 net.cpp:100] Creating Layer relu3_1
I0807 13:23:13.328608  1240 net.cpp:434] relu3_1 <- conv3_1
I0807 13:23:13.328618  1240 net.cpp:395] relu3_1 -> conv3_1 (in-place)
I0807 13:23:13.328824  1240 net.cpp:150] Setting up relu3_1
I0807 13:23:13.328835  1240 net.cpp:157] Top shape: 32 256 56 56 (25690112)
I0807 13:23:13.328840  1240 net.cpp:165] Memory required for data: 2845181952
I0807 13:23:13.328846  1240 layer_factory.hpp:77] Creating layer conv3_2
I0807 13:23:13.328857  1240 net.cpp:100] Creating Layer conv3_2
I0807 13:23:13.328863  1240 net.cpp:434] conv3_2 <- conv3_1
I0807 13:23:13.328874  1240 net.cpp:408] conv3_2 -> conv3_2
I0807 13:23:13.330384  1240 net.cpp:150] Setting up conv3_2
I0807 13:23:13.330397  1240 net.cpp:157] Top shape: 32 256 56 56 (25690112)
I0807 13:23:13.330404  1240 net.cpp:165] Memory required for data: 2947942400
I0807 13:23:13.330413  1240 layer_factory.hpp:77] Creating layer relu3_2
I0807 13:23:13.330422  1240 net.cpp:100] Creating Layer relu3_2
I0807 13:23:13.330428  1240 net.cpp:434] relu3_2 <- conv3_2
I0807 13:23:13.330438  1240 net.cpp:395] relu3_2 -> conv3_2 (in-place)
I0807 13:23:13.330569  1240 net.cpp:150] Setting up relu3_2
I0807 13:23:13.330581  1240 net.cpp:157] Top shape: 32 256 56 56 (25690112)
I0807 13:23:13.330587  1240 net.cpp:165] Memory required for data: 3050702848
I0807 13:23:13.330593  1240 layer_factory.hpp:77] Creating layer conv3_3
I0807 13:23:13.330605  1240 net.cpp:100] Creating Layer conv3_3
I0807 13:23:13.330610  1240 net.cpp:434] conv3_3 <- conv3_2
I0807 13:23:13.330621  1240 net.cpp:408] conv3_3 -> conv3_3
I0807 13:23:13.332171  1240 net.cpp:150] Setting up conv3_3
I0807 13:23:13.332185  1240 net.cpp:157] Top shape: 32 256 56 56 (25690112)
I0807 13:23:13.332190  1240 net.cpp:165] Memory required for data: 3153463296
I0807 13:23:13.332200  1240 layer_factory.hpp:77] Creating layer relu3_3
I0807 13:23:13.332213  1240 net.cpp:100] Creating Layer relu3_3
I0807 13:23:13.332221  1240 net.cpp:434] relu3_3 <- conv3_3
I0807 13:23:13.332229  1240 net.cpp:395] relu3_3 -> conv3_3 (in-place)
I0807 13:23:13.332445  1240 net.cpp:150] Setting up relu3_3
I0807 13:23:13.332456  1240 net.cpp:157] Top shape: 32 256 56 56 (25690112)
I0807 13:23:13.332463  1240 net.cpp:165] Memory required for data: 3256223744
I0807 13:23:13.332468  1240 layer_factory.hpp:77] Creating layer pool3
I0807 13:23:13.332476  1240 net.cpp:100] Creating Layer pool3
I0807 13:23:13.332482  1240 net.cpp:434] pool3 <- conv3_3
I0807 13:23:13.332496  1240 net.cpp:408] pool3 -> pool3
I0807 13:23:13.332536  1240 net.cpp:150] Setting up pool3
I0807 13:23:13.332545  1240 net.cpp:157] Top shape: 32 256 28 28 (6422528)
I0807 13:23:13.332564  1240 net.cpp:165] Memory required for data: 3281913856
I0807 13:23:13.332571  1240 layer_factory.hpp:77] Creating layer conv4_1
I0807 13:23:13.332584  1240 net.cpp:100] Creating Layer conv4_1
I0807 13:23:13.332592  1240 net.cpp:434] conv4_1 <- pool3
I0807 13:23:13.332599  1240 net.cpp:408] conv4_1 -> conv4_1
I0807 13:23:13.334832  1240 net.cpp:150] Setting up conv4_1
I0807 13:23:13.334857  1240 net.cpp:157] Top shape: 32 512 28 28 (12845056)
I0807 13:23:13.334863  1240 net.cpp:165] Memory required for data: 3333294080
I0807 13:23:13.334873  1240 layer_factory.hpp:77] Creating layer relu4_1
I0807 13:23:13.334884  1240 net.cpp:100] Creating Layer relu4_1
I0807 13:23:13.334892  1240 net.cpp:434] relu4_1 <- conv4_1
I0807 13:23:13.334899  1240 net.cpp:395] relu4_1 -> conv4_1 (in-place)
I0807 13:23:13.335173  1240 net.cpp:150] Setting up relu4_1
I0807 13:23:13.335186  1240 net.cpp:157] Top shape: 32 512 28 28 (12845056)
I0807 13:23:13.335192  1240 net.cpp:165] Memory required for data: 3384674304
I0807 13:23:13.335197  1240 layer_factory.hpp:77] Creating layer conv4_2
I0807 13:23:13.335208  1240 net.cpp:100] Creating Layer conv4_2
I0807 13:23:13.335213  1240 net.cpp:434] conv4_2 <- conv4_1
I0807 13:23:13.335222  1240 net.cpp:408] conv4_2 -> conv4_2
I0807 13:23:13.339687  1240 net.cpp:150] Setting up conv4_2
I0807 13:23:13.339715  1240 net.cpp:157] Top shape: 32 512 28 28 (12845056)
I0807 13:23:13.339720  1240 net.cpp:165] Memory required for data: 3436054528
I0807 13:23:13.339730  1240 layer_factory.hpp:77] Creating layer relu4_2
I0807 13:23:13.339740  1240 net.cpp:100] Creating Layer relu4_2
I0807 13:23:13.339745  1240 net.cpp:434] relu4_2 <- conv4_2
I0807 13:23:13.339751  1240 net.cpp:395] relu4_2 -> conv4_2 (in-place)
I0807 13:23:13.339887  1240 net.cpp:150] Setting up relu4_2
I0807 13:23:13.339896  1240 net.cpp:157] Top shape: 32 512 28 28 (12845056)
I0807 13:23:13.339900  1240 net.cpp:165] Memory required for data: 3487434752
I0807 13:23:13.339902  1240 layer_factory.hpp:77] Creating layer conv4_3
I0807 13:23:13.339910  1240 net.cpp:100] Creating Layer conv4_3
I0807 13:23:13.339913  1240 net.cpp:434] conv4_3 <- conv4_2
I0807 13:23:13.339920  1240 net.cpp:408] conv4_3 -> conv4_3
I0807 13:23:13.343852  1240 net.cpp:150] Setting up conv4_3
I0807 13:23:13.343881  1240 net.cpp:157] Top shape: 32 512 28 28 (12845056)
I0807 13:23:13.343885  1240 net.cpp:165] Memory required for data: 3538814976
I0807 13:23:13.343893  1240 layer_factory.hpp:77] Creating layer relu4_3
I0807 13:23:13.343902  1240 net.cpp:100] Creating Layer relu4_3
I0807 13:23:13.343906  1240 net.cpp:434] relu4_3 <- conv4_3
I0807 13:23:13.343912  1240 net.cpp:395] relu4_3 -> conv4_3 (in-place)
I0807 13:23:13.344116  1240 net.cpp:150] Setting up relu4_3
I0807 13:23:13.344126  1240 net.cpp:157] Top shape: 32 512 28 28 (12845056)
I0807 13:23:13.344130  1240 net.cpp:165] Memory required for data: 3590195200
I0807 13:23:13.344133  1240 layer_factory.hpp:77] Creating layer pool4
I0807 13:23:13.344139  1240 net.cpp:100] Creating Layer pool4
I0807 13:23:13.344142  1240 net.cpp:434] pool4 <- conv4_3
I0807 13:23:13.344148  1240 net.cpp:408] pool4 -> pool4
I0807 13:23:13.344180  1240 net.cpp:150] Setting up pool4
I0807 13:23:13.344187  1240 net.cpp:157] Top shape: 32 512 14 14 (3211264)
I0807 13:23:13.344189  1240 net.cpp:165] Memory required for data: 3603040256
I0807 13:23:13.344192  1240 layer_factory.hpp:77] Creating layer conv5_1
I0807 13:23:13.344199  1240 net.cpp:100] Creating Layer conv5_1
I0807 13:23:13.344202  1240 net.cpp:434] conv5_1 <- pool4
I0807 13:23:13.344208  1240 net.cpp:408] conv5_1 -> conv5_1
I0807 13:23:13.348189  1240 net.cpp:150] Setting up conv5_1
I0807 13:23:13.348217  1240 net.cpp:157] Top shape: 32 512 14 14 (3211264)
I0807 13:23:13.348220  1240 net.cpp:165] Memory required for data: 3615885312
I0807 13:23:13.348227  1240 layer_factory.hpp:77] Creating layer relu5_1
I0807 13:23:13.348237  1240 net.cpp:100] Creating Layer relu5_1
I0807 13:23:13.348242  1240 net.cpp:434] relu5_1 <- conv5_1
I0807 13:23:13.348247  1240 net.cpp:395] relu5_1 -> conv5_1 (in-place)
I0807 13:23:13.348459  1240 net.cpp:150] Setting up relu5_1
I0807 13:23:13.348469  1240 net.cpp:157] Top shape: 32 512 14 14 (3211264)
I0807 13:23:13.348474  1240 net.cpp:165] Memory required for data: 3628730368
I0807 13:23:13.348476  1240 layer_factory.hpp:77] Creating layer conv5_2
I0807 13:23:13.348484  1240 net.cpp:100] Creating Layer conv5_2
I0807 13:23:13.348487  1240 net.cpp:434] conv5_2 <- conv5_1
I0807 13:23:13.348493  1240 net.cpp:408] conv5_2 -> conv5_2
I0807 13:23:13.352583  1240 net.cpp:150] Setting up conv5_2
I0807 13:23:13.352607  1240 net.cpp:157] Top shape: 32 512 14 14 (3211264)
I0807 13:23:13.352610  1240 net.cpp:165] Memory required for data: 3641575424
I0807 13:23:13.352617  1240 layer_factory.hpp:77] Creating layer relu5_2
I0807 13:23:13.352625  1240 net.cpp:100] Creating Layer relu5_2
I0807 13:23:13.352629  1240 net.cpp:434] relu5_2 <- conv5_2
I0807 13:23:13.352637  1240 net.cpp:395] relu5_2 -> conv5_2 (in-place)
I0807 13:23:13.352758  1240 net.cpp:150] Setting up relu5_2
I0807 13:23:13.352766  1240 net.cpp:157] Top shape: 32 512 14 14 (3211264)
I0807 13:23:13.352771  1240 net.cpp:165] Memory required for data: 3654420480
I0807 13:23:13.352773  1240 layer_factory.hpp:77] Creating layer conv5_3
I0807 13:23:13.352780  1240 net.cpp:100] Creating Layer conv5_3
I0807 13:23:13.352783  1240 net.cpp:434] conv5_3 <- conv5_2
I0807 13:23:13.352789  1240 net.cpp:408] conv5_3 -> conv5_3
I0807 13:23:13.357081  1240 net.cpp:150] Setting up conv5_3
I0807 13:23:13.357108  1240 net.cpp:157] Top shape: 32 512 14 14 (3211264)
I0807 13:23:13.357112  1240 net.cpp:165] Memory required for data: 3667265536
I0807 13:23:13.357121  1240 layer_factory.hpp:77] Creating layer relu5_3
I0807 13:23:13.357130  1240 net.cpp:100] Creating Layer relu5_3
I0807 13:23:13.357134  1240 net.cpp:434] relu5_3 <- conv5_3
I0807 13:23:13.357142  1240 net.cpp:395] relu5_3 -> conv5_3 (in-place)
I0807 13:23:13.357352  1240 net.cpp:150] Setting up relu5_3
I0807 13:23:13.357362  1240 net.cpp:157] Top shape: 32 512 14 14 (3211264)
I0807 13:23:13.357365  1240 net.cpp:165] Memory required for data: 3680110592
I0807 13:23:13.357368  1240 layer_factory.hpp:77] Creating layer CAM_conv
I0807 13:23:13.357378  1240 net.cpp:100] Creating Layer CAM_conv
I0807 13:23:13.357383  1240 net.cpp:434] CAM_conv <- conv5_3
I0807 13:23:13.357388  1240 net.cpp:408] CAM_conv -> CAM_conv
I0807 13:23:13.412053  1240 net.cpp:150] Setting up CAM_conv
I0807 13:23:13.412076  1240 net.cpp:157] Top shape: 32 1024 14 14 (6422528)
I0807 13:23:13.412081  1240 net.cpp:165] Memory required for data: 3705800704
I0807 13:23:13.412087  1240 layer_factory.hpp:77] Creating layer CAM_relu
I0807 13:23:13.412101  1240 net.cpp:100] Creating Layer CAM_relu
I0807 13:23:13.412104  1240 net.cpp:434] CAM_relu <- CAM_conv
I0807 13:23:13.412111  1240 net.cpp:395] CAM_relu -> CAM_conv (in-place)
I0807 13:23:13.412320  1240 net.cpp:150] Setting up CAM_relu
I0807 13:23:13.412330  1240 net.cpp:157] Top shape: 32 1024 14 14 (6422528)
I0807 13:23:13.412334  1240 net.cpp:165] Memory required for data: 3731490816
I0807 13:23:13.412338  1240 layer_factory.hpp:77] Creating layer CAM_pool
I0807 13:23:13.412343  1240 net.cpp:100] Creating Layer CAM_pool
I0807 13:23:13.412346  1240 net.cpp:434] CAM_pool <- CAM_conv
I0807 13:23:13.412353  1240 net.cpp:408] CAM_pool -> CAM_pool
I0807 13:23:13.412511  1240 net.cpp:150] Setting up CAM_pool
I0807 13:23:13.412524  1240 net.cpp:157] Top shape: 32 1024 1 1 (32768)
I0807 13:23:13.412531  1240 net.cpp:165] Memory required for data: 3731621888
I0807 13:23:13.412538  1240 layer_factory.hpp:77] Creating layer CAM_dropout
I0807 13:23:13.412549  1240 net.cpp:100] Creating Layer CAM_dropout
I0807 13:23:13.412556  1240 net.cpp:434] CAM_dropout <- CAM_pool
I0807 13:23:13.412564  1240 net.cpp:395] CAM_dropout -> CAM_pool (in-place)
I0807 13:23:13.412600  1240 net.cpp:150] Setting up CAM_dropout
I0807 13:23:13.412606  1240 net.cpp:157] Top shape: 32 1024 1 1 (32768)
I0807 13:23:13.412609  1240 net.cpp:165] Memory required for data: 3731752960
I0807 13:23:13.412624  1240 layer_factory.hpp:77] Creating layer CAM_pre
I0807 13:23:13.412634  1240 net.cpp:100] Creating Layer CAM_pre
I0807 13:23:13.412637  1240 net.cpp:434] CAM_pre <- CAM_pool
I0807 13:23:13.412642  1240 net.cpp:408] CAM_pre -> CAM_pre
I0807 13:23:13.436141  1240 net.cpp:150] Setting up CAM_pre
I0807 13:23:13.436162  1240 net.cpp:157] Top shape: 32 1000 (32000)
I0807 13:23:13.436167  1240 net.cpp:165] Memory required for data: 3731880960
I0807 13:23:13.436173  1240 layer_factory.hpp:77] Creating layer loss
I0807 13:23:13.436182  1240 net.cpp:100] Creating Layer loss
I0807 13:23:13.436187  1240 net.cpp:434] loss <- CAM_pre
I0807 13:23:13.436192  1240 net.cpp:434] loss <- label
I0807 13:23:13.436197  1240 net.cpp:408] loss -> (automatic)
I0807 13:23:13.436213  1240 layer_factory.hpp:77] Creating layer loss
…
