…
I0807 14:20:37.342793 12887 net.cpp:58] Initializing net from parameters: 
name: "VGG_ILSVRC_16_layers"
state {
  phase: TRAIN
  level: 0
  stage: ""
}
layer {
  name: "data"
  type: "Data"
  top: "data"
  top: "label"
  include {
    phase: TRAIN
  }
  transform_param {
    mirror: true
    crop_size: 224
    mean_value: 103.939
    mean_value: 116.779
    mean_value: 123.68
  }
  data_param {
    source: "/home/lijun/Research/DataSet/ILSVRC2014/ILSVRC2014_DET/image/ilsvrc14_train_lmdb"
    batch_size: 32
    backend: LMDB
    multi_label: true
    label_size: 16
  }
}
layer {
  name: "conv1_1"
  type: "Convolution"
  bottom: "data"
  top: "conv1_1"
  param {
    lr_mult: 1
    decay_mult: 1
  }
  param {
    lr_mult: 2
    decay_mult: 0
  }
  convolution_param {
    num_output: 64
    pad: 1
    kernel_size: 3
  }
}
layer {
  name: "relu1_1"
  type: "ReLU"
  bottom: "conv1_1"
  top: "conv1_1"
}
layer {
  name: "conv1_2"
  type: "Convolution"
  bottom: "conv1_1"
  top: "conv1_2"
  param {
    lr_mult: 1
    decay_mult: 1
  }
  param {
    lr_mult: 2
    decay_mult: 0
  }
  convolution_param {
    num_output: 64
    pad: 1
    kernel_size: 3
  }
}
layer {
  name: "relu1_2"
  type: "ReLU"
  bottom: "conv1_2"
  top: "conv1_2"
}
layer {
  name: "pool1"
  type: "Pooling"
  bottom: "conv1_2"
  top: "pool1"
  pooling_param {
    pool: MAX
    kernel_size: 2
    stride: 2
  }
}
layer {
  name: "conv2_1"
  type: "Convolution"
  bottom: "pool1"
  top: "conv2_1"
  param {
    lr_mult: 1
    decay_mult: 1
  }
  param {
    lr_mult: 2
    decay_mult: 0
  }
  convolution_param {
    num_output: 128
    pad: 1
    kernel_size: 3
  }
}
layer {
  name: "relu2_1"
  type: "ReLU"
  bottom: "conv2_1"
  top: "conv2_1"
}
layer {
  name: "conv2_2"
  type: "Convolution"
  bottom: "conv2_1"
  top: "conv2_2"
  param {
    lr_mult: 1
    decay_mult: 1
  }
  param {
    lr_mult: 2
    decay_mult: 0
  }
  convolution_param {
    num_output: 128
    pad: 1
    kernel_size: 3
  }
}
layer {
  name: "relu2_2"
  type: "ReLU"
  bottom: "conv2_2"
  top: "conv2_2"
}
layer {
  name: "pool2"
  type: "Pooling"
  bottom: "conv2_2"
  top: "pool2"
  pooling_param {
    pool: MAX
    kernel_size: 2
    stride: 2
  }
}
layer {
  name: "conv3_1"
  type: "Convolution"
  bottom: "pool2"
  top: "conv3_1"
  param {
    lr_mult: 1
    decay_mult: 1
  }
  param {
    lr_mult: 2
    decay_mult: 0
  }
  convolution_param {
    num_output: 256
    pad: 1
    kernel_size: 3
  }
}
layer {
  name: "relu3_1"
  type: "ReLU"
  bottom: "conv3_1"
  top: "conv3_1"
}
layer {
  name: "conv3_2"
  type: "Convolution"
  bottom: "conv3_1"
  top: "conv3_2"
  param {
    lr_mult: 1
    decay_mult: 1
  }
  param {
    lr_mult: 2
    decay_mult: 0
  }
  convolution_param {
    num_output: 256
    pad: 1
    kernel_size: 3
  }
}
layer {
  name: "relu3_2"
  type: "ReLU"
  bottom: "conv3_2"
  top: "conv3_2"
}
layer {
  name: "conv3_3"
  type: "Convolution"
  bottom: "conv3_2"
  top: "conv3_3"
  param {
    lr_mult: 1
    decay_mult: 1
  }
  param {
    lr_mult: 2
    decay_mult: 0
  }
  convolution_param {
    num_output: 256
    pad: 1
    kernel_size: 3
  }
}
layer {
  name: "relu3_3"
  type: "ReLU"
  bottom: "conv3_3"
  top: "conv3_3"
}
layer {
  name: "pool3"
  type: "Pooling"
  bottom: "conv3_3"
  top: "pool3"
  pooling_param {
    pool: MAX
    kernel_size: 2
    stride: 2
  }
}
layer {
  name: "conv4_1"
  type: "Convolution"
  bottom: "pool3"
  top: "conv4_1"
  param {
    lr_mult: 1
    decay_mult: 1
  }
  param {
    lr_mult: 2
    decay_mult: 0
  }
  convolution_param {
    num_output: 512
    pad: 1
    kernel_size: 3
  }
}
layer {
  name: "relu4_1"
  type: "ReLU"
  bottom: "conv4_1"
  top: "conv4_1"
}
layer {
  name: "conv4_2"
  type: "Convolution"
  bottom: "conv4_1"
  top: "conv4_2"
  param {
    lr_mult: 1
    decay_mult: 1
  }
  param {
    lr_mult: 2
    decay_mult: 0
  }
  convolution_param {
    num_output: 512
    pad: 1
    kernel_size: 3
  }
}
layer {
  name: "relu4_2"
  type: "ReLU"
  bottom: "conv4_2"
  top: "conv4_2"
}
layer {
  name: "conv4_3"
  type: "Convolution"
  bottom: "conv4_2"
  top: "conv4_3"
  param {
    lr_mult: 1
    decay_mult: 1
  }
  param {
    lr_mult: 2
    decay_mult: 0
  }
  convolution_param {
    num_output: 512
    pad: 1
    kernel_size: 3
  }
}
layer {
  name: "relu4_3"
  type: "ReLU"
  bottom: "conv4_3"
  top: "conv4_3"
}
layer {
  name: "pool4"
  type: "Pooling"
  bottom: "conv4_3"
  top: "pool4"
  pooling_param {
    pool: MAX
    kernel_size: 2
    stride: 2
  }
}
layer {
  name: "conv5_1"
  type: "Convolution"
  bottom: "pool4"
  top: "conv5_1"
  param {
    lr_mult: 1
    decay_mult: 1
  }
  param {
    lr_mult: 2
    decay_mult: 0
  }
  convolution_param {
    num_output: 512
    pad: 1
    kernel_size: 3
  }
}
layer {
  name: "relu5_1"
  type: "ReLU"
  bottom: "conv5_1"
  top: "conv5_1"
}
layer {
  name: "conv5_2"
  type: "Convolution"
  bottom: "conv5_1"
  top: "conv5_2"
  param {
    lr_mult: 1
    decay_mult: 1
  }
  param {
    lr_mult: 2
    decay_mult: 0
  }
  convolution_param {
    num_output: 512
    pad: 1
    kernel_size: 3
  }
}
layer {
  name: "relu5_2"
  type: "ReLU"
  bottom: "conv5_2"
  top: "conv5_2"
}
layer {
  name: "conv5_3"
  type: "Convolution"
  bottom: "conv5_2"
  top: "conv5_3"
  param {
    lr_mult: 1
    decay_mult: 1
  }
  param {
    lr_mult: 2
    decay_mult: 0
  }
  convolution_param {
    num_output: 512
    pad: 1
    kernel_size: 3
  }
}
layer {
  name: "relu5_3"
  type: "ReLU"
  bottom: "conv5_3"
  top: "conv5_3"
}
layer {
  name: "CAM_conv"
  type: "Convolution"
  bottom: "conv5_3"
  top: "CAM_conv"
  param {
    lr_mult: 1
    decay_mult: 1
  }
  param {
    lr_mult: 2
    decay_mult: 0
  }
  convolution_param {
    num_output: 1024
    pad: 1
    kernel_size: 3
    group: 2
    weight_filler {
      type: "gaussian"
      std: 0.01
    }
    bias_filler {
      type: "constant"
      value: 0
    }
  }
}
layer {
  name: "CAM_relu"
  type: "ReLU"
  bottom: "CAM_conv"
  top: "CAM_conv"
}
layer {
  name: "CAM_pool"
  type: "Pooling"
  bottom: "CAM_conv"
  top: "CAM_pool"
  pooling_param {
    pool: AVE
    kernel_size: 14
    stride: 14
  }
}
layer {
  name: "CAM_dropout"
  type: "Dropout"
  bottom: "CAM_pool"
  top: "CAM_pool"
  dropout_param {
    dropout_ratio: 0.5
  }
}
layer {
  name: "CAM_pre"
  type: "InnerProduct"
  bottom: "CAM_pool"
  top: "CAM_pre"
  param {
    lr_mult: 10
    decay_mult: 1
  }
  param {
    lr_mult: 20
    decay_mult: 0
  }
  inner_product_param {
    num_output: 1000
    weight_filler {
      type: "gaussian"
      std: 0.01
    }
    bias_filler {
      type: "constant"
      value: 0
    }
  }
}
layer {
  name: "loss"
  type: "SigmoidMultiLabelLoss"
  bottom: "CAM_pre"
  bottom: "label"
  include {
    phase: TRAIN
  }
  include {
    phase: TEST
  }
}
I0807 14:20:37.342978 12887 layer_factory.hpp:77] Creating layer data
I0807 14:20:37.343547 12887 net.cpp:100] Creating Layer data
I0807 14:20:37.343564 12887 net.cpp:408] data -> data
I0807 14:20:37.343592 12887 net.cpp:408] data -> label
I0807 14:20:37.344215 12893 db_lmdb.cpp:35] Opened lmdb /home/lijun/Research/DataSet/ILSVRC2014/ILSVRC2014_DET/image/ilsvrc14_train_lmdb
I0807 14:20:37.351425 12887 data_layer.cpp:45] output data size: 32,3,224,224
I0807 14:20:37.378561 12887 net.cpp:150] Setting up data
I0807 14:20:37.378602 12887 net.cpp:157] Top shape: 32 3 224 224 (4816896)
I0807 14:20:37.378625 12887 net.cpp:157] Top shape: 32 16 1 1 (512)
I0807 14:20:37.378635 12887 net.cpp:165] Memory required for data: 19269632
I0807 14:20:37.378648 12887 layer_factory.hpp:77] Creating layer conv1_1
I0807 14:20:37.378659 12887 layer_factory.cpp:68] Use CuDNNConvolutionLayer
I0807 14:20:37.378679 12887 net.cpp:100] Creating Layer conv1_1
I0807 14:20:37.378686 12887 net.cpp:434] conv1_1 <- data
I0807 14:20:37.378706 12887 net.cpp:408] conv1_1 -> conv1_1
I0807 14:20:37.382774 12894 blocking_queue.cpp:50] Waiting for data
I0807 14:20:38.115603 12887 net.cpp:150] Setting up conv1_1
I0807 14:20:38.115628 12887 net.cpp:157] Top shape: 32 64 224 224 (102760448)
I0807 14:20:38.115633 12887 net.cpp:165] Memory required for data: 430311424
I0807 14:20:38.115646 12887 layer_factory.hpp:77] Creating layer relu1_1
I0807 14:20:38.115656 12887 net.cpp:100] Creating Layer relu1_1
I0807 14:20:38.115660 12887 net.cpp:434] relu1_1 <- conv1_1
I0807 14:20:38.115665 12887 net.cpp:395] relu1_1 -> conv1_1 (in-place)
I0807 14:20:38.115867 12887 net.cpp:150] Setting up relu1_1
I0807 14:20:38.115877 12887 net.cpp:157] Top shape: 32 64 224 224 (102760448)
I0807 14:20:38.115880 12887 net.cpp:165] Memory required for data: 841353216
I0807 14:20:38.115885 12887 layer_factory.hpp:77] Creating layer conv1_2
I0807 14:20:38.115890 12887 layer_factory.cpp:68] Use CuDNNConvolutionLayer
I0807 14:20:38.115896 12887 net.cpp:100] Creating Layer conv1_2
I0807 14:20:38.115900 12887 net.cpp:434] conv1_2 <- conv1_1
I0807 14:20:38.115905 12887 net.cpp:408] conv1_2 -> conv1_2
I0807 14:20:38.116643 12887 net.cpp:150] Setting up conv1_2
I0807 14:20:38.116654 12887 net.cpp:157] Top shape: 32 64 224 224 (102760448)
I0807 14:20:38.116658 12887 net.cpp:165] Memory required for data: 1252395008
I0807 14:20:38.116665 12887 layer_factory.hpp:77] Creating layer relu1_2
I0807 14:20:38.116672 12887 net.cpp:100] Creating Layer relu1_2
I0807 14:20:38.116674 12887 net.cpp:434] relu1_2 <- conv1_2
I0807 14:20:38.116679 12887 net.cpp:395] relu1_2 -> conv1_2 (in-place)
I0807 14:20:38.116789 12887 net.cpp:150] Setting up relu1_2
I0807 14:20:38.116797 12887 net.cpp:157] Top shape: 32 64 224 224 (102760448)
I0807 14:20:38.116801 12887 net.cpp:165] Memory required for data: 1663436800
I0807 14:20:38.116804 12887 layer_factory.hpp:77] Creating layer pool1
I0807 14:20:38.116812 12887 net.cpp:100] Creating Layer pool1
I0807 14:20:38.116816 12887 net.cpp:434] pool1 <- conv1_2
I0807 14:20:38.116821 12887 net.cpp:408] pool1 -> pool1
I0807 14:20:38.116857 12887 net.cpp:150] Setting up pool1
I0807 14:20:38.116863 12887 net.cpp:157] Top shape: 32 64 112 112 (25690112)
I0807 14:20:38.116866 12887 net.cpp:165] Memory required for data: 1766197248
I0807 14:20:38.116870 12887 layer_factory.hpp:77] Creating layer conv2_1
I0807 14:20:38.116873 12887 layer_factory.cpp:68] Use CuDNNConvolutionLayer
I0807 14:20:38.116878 12887 net.cpp:100] Creating Layer conv2_1
I0807 14:20:38.116883 12887 net.cpp:434] conv2_1 <- pool1
I0807 14:20:38.116886 12887 net.cpp:408] conv2_1 -> conv2_1
I0807 14:20:38.118171 12887 net.cpp:150] Setting up conv2_1
I0807 14:20:38.118183 12887 net.cpp:157] Top shape: 32 128 112 112 (51380224)
I0807 14:20:38.118187 12887 net.cpp:165] Memory required for data: 1971718144
I0807 14:20:38.118194 12887 layer_factory.hpp:77] Creating layer relu2_1
I0807 14:20:38.118201 12887 net.cpp:100] Creating Layer relu2_1
I0807 14:20:38.118203 12887 net.cpp:434] relu2_1 <- conv2_1
I0807 14:20:38.118209 12887 net.cpp:395] relu2_1 -> conv2_1 (in-place)
I0807 14:20:38.118335 12887 net.cpp:150] Setting up relu2_1
I0807 14:20:38.118342 12887 net.cpp:157] Top shape: 32 128 112 112 (51380224)
I0807 14:20:38.118345 12887 net.cpp:165] Memory required for data: 2177239040
I0807 14:20:38.118350 12887 layer_factory.hpp:77] Creating layer conv2_2
I0807 14:20:38.118353 12887 layer_factory.cpp:68] Use CuDNNConvolutionLayer
I0807 14:20:38.118360 12887 net.cpp:100] Creating Layer conv2_2
I0807 14:20:38.118363 12887 net.cpp:434] conv2_2 <- conv2_1
I0807 14:20:38.118369 12887 net.cpp:408] conv2_2 -> conv2_2
I0807 14:20:38.119210 12887 net.cpp:150] Setting up conv2_2
I0807 14:20:38.119221 12887 net.cpp:157] Top shape: 32 128 112 112 (51380224)
I0807 14:20:38.119225 12887 net.cpp:165] Memory required for data: 2382759936
I0807 14:20:38.119231 12887 layer_factory.hpp:77] Creating layer relu2_2
I0807 14:20:38.119236 12887 net.cpp:100] Creating Layer relu2_2
I0807 14:20:38.119240 12887 net.cpp:434] relu2_2 <- conv2_2
I0807 14:20:38.119245 12887 net.cpp:395] relu2_2 -> conv2_2 (in-place)
I0807 14:20:38.119446 12887 net.cpp:150] Setting up relu2_2
I0807 14:20:38.119457 12887 net.cpp:157] Top shape: 32 128 112 112 (51380224)
I0807 14:20:38.119459 12887 net.cpp:165] Memory required for data: 2588280832
I0807 14:20:38.119463 12887 layer_factory.hpp:77] Creating layer pool2
I0807 14:20:38.119469 12887 net.cpp:100] Creating Layer pool2
I0807 14:20:38.119472 12887 net.cpp:434] pool2 <- conv2_2
I0807 14:20:38.119477 12887 net.cpp:408] pool2 -> pool2
I0807 14:20:38.119508 12887 net.cpp:150] Setting up pool2
I0807 14:20:38.119514 12887 net.cpp:157] Top shape: 32 128 56 56 (12845056)
I0807 14:20:38.119518 12887 net.cpp:165] Memory required for data: 2639661056
I0807 14:20:38.119520 12887 layer_factory.hpp:77] Creating layer conv3_1
I0807 14:20:38.119524 12887 layer_factory.cpp:68] Use CuDNNConvolutionLayer
I0807 14:20:38.119530 12887 net.cpp:100] Creating Layer conv3_1
I0807 14:20:38.119534 12887 net.cpp:434] conv3_1 <- pool2
I0807 14:20:38.119539 12887 net.cpp:408] conv3_1 -> conv3_1
I0807 14:20:38.120720 12887 net.cpp:150] Setting up conv3_1
I0807 14:20:38.120733 12887 net.cpp:157] Top shape: 32 256 56 56 (25690112)
I0807 14:20:38.120736 12887 net.cpp:165] Memory required for data: 2742421504
I0807 14:20:38.120743 12887 layer_factory.hpp:77] Creating layer relu3_1
I0807 14:20:38.120750 12887 net.cpp:100] Creating Layer relu3_1
I0807 14:20:38.120754 12887 net.cpp:434] relu3_1 <- conv3_1
I0807 14:20:38.120757 12887 net.cpp:395] relu3_1 -> conv3_1 (in-place)
I0807 14:20:38.120883 12887 net.cpp:150] Setting up relu3_1
I0807 14:20:38.120892 12887 net.cpp:157] Top shape: 32 256 56 56 (25690112)
I0807 14:20:38.120895 12887 net.cpp:165] Memory required for data: 2845181952
I0807 14:20:38.120898 12887 layer_factory.hpp:77] Creating layer conv3_2
I0807 14:20:38.120903 12887 layer_factory.cpp:68] Use CuDNNConvolutionLayer
I0807 14:20:38.120920 12887 net.cpp:100] Creating Layer conv3_2
I0807 14:20:38.120929 12887 net.cpp:434] conv3_2 <- conv3_1
I0807 14:20:38.120942 12887 net.cpp:408] conv3_2 -> conv3_2
I0807 14:20:38.122488 12887 net.cpp:150] Setting up conv3_2
I0807 14:20:38.122500 12887 net.cpp:157] Top shape: 32 256 56 56 (25690112)
I0807 14:20:38.122504 12887 net.cpp:165] Memory required for data: 2947942400
I0807 14:20:38.122510 12887 layer_factory.hpp:77] Creating layer relu3_2
I0807 14:20:38.122517 12887 net.cpp:100] Creating Layer relu3_2
I0807 14:20:38.122520 12887 net.cpp:434] relu3_2 <- conv3_2
I0807 14:20:38.122525 12887 net.cpp:395] relu3_2 -> conv3_2 (in-place)
I0807 14:20:38.122654 12887 net.cpp:150] Setting up relu3_2
I0807 14:20:38.122663 12887 net.cpp:157] Top shape: 32 256 56 56 (25690112)
I0807 14:20:38.122666 12887 net.cpp:165] Memory required for data: 3050702848
I0807 14:20:38.122669 12887 layer_factory.hpp:77] Creating layer conv3_3
I0807 14:20:38.122673 12887 layer_factory.cpp:68] Use CuDNNConvolutionLayer
I0807 14:20:38.122680 12887 net.cpp:100] Creating Layer conv3_3
I0807 14:20:38.122684 12887 net.cpp:434] conv3_3 <- conv3_2
I0807 14:20:38.122689 12887 net.cpp:408] conv3_3 -> conv3_3
I0807 14:20:38.124272 12887 net.cpp:150] Setting up conv3_3
I0807 14:20:38.124284 12887 net.cpp:157] Top shape: 32 256 56 56 (25690112)
I0807 14:20:38.124287 12887 net.cpp:165] Memory required for data: 3153463296
I0807 14:20:38.124292 12887 layer_factory.hpp:77] Creating layer relu3_3
I0807 14:20:38.124301 12887 net.cpp:100] Creating Layer relu3_3
I0807 14:20:38.124305 12887 net.cpp:434] relu3_3 <- conv3_3
I0807 14:20:38.124310 12887 net.cpp:395] relu3_3 -> conv3_3 (in-place)
I0807 14:20:38.124514 12887 net.cpp:150] Setting up relu3_3
I0807 14:20:38.124534 12887 net.cpp:157] Top shape: 32 256 56 56 (25690112)
I0807 14:20:38.124538 12887 net.cpp:165] Memory required for data: 3256223744
I0807 14:20:38.124542 12887 layer_factory.hpp:77] Creating layer pool3
I0807 14:20:38.124549 12887 net.cpp:100] Creating Layer pool3
I0807 14:20:38.124553 12887 net.cpp:434] pool3 <- conv3_3
I0807 14:20:38.124558 12887 net.cpp:408] pool3 -> pool3
I0807 14:20:38.124591 12887 net.cpp:150] Setting up pool3
I0807 14:20:38.124598 12887 net.cpp:157] Top shape: 32 256 28 28 (6422528)
I0807 14:20:38.124600 12887 net.cpp:165] Memory required for data: 3281913856
I0807 14:20:38.124603 12887 layer_factory.hpp:77] Creating layer conv4_1
I0807 14:20:38.124608 12887 layer_factory.cpp:68] Use CuDNNConvolutionLayer
I0807 14:20:38.124614 12887 net.cpp:100] Creating Layer conv4_1
I0807 14:20:38.124617 12887 net.cpp:434] conv4_1 <- pool3
I0807 14:20:38.124621 12887 net.cpp:408] conv4_1 -> conv4_1
I0807 14:20:38.127197 12887 net.cpp:150] Setting up conv4_1
I0807 14:20:38.127218 12887 net.cpp:157] Top shape: 32 512 28 28 (12845056)
I0807 14:20:38.127223 12887 net.cpp:165] Memory required for data: 3333294080
I0807 14:20:38.127230 12887 layer_factory.hpp:77] Creating layer relu4_1
I0807 14:20:38.127238 12887 net.cpp:100] Creating Layer relu4_1
I0807 14:20:38.127243 12887 net.cpp:434] relu4_1 <- conv4_1
I0807 14:20:38.127250 12887 net.cpp:395] relu4_1 -> conv4_1 (in-place)
I0807 14:20:38.127445 12887 net.cpp:150] Setting up relu4_1
I0807 14:20:38.127454 12887 net.cpp:157] Top shape: 32 512 28 28 (12845056)
I0807 14:20:38.127457 12887 net.cpp:165] Memory required for data: 3384674304
I0807 14:20:38.127460 12887 layer_factory.hpp:77] Creating layer conv4_2
I0807 14:20:38.127465 12887 layer_factory.cpp:68] Use CuDNNConvolutionLayer
I0807 14:20:38.127471 12887 net.cpp:100] Creating Layer conv4_2
I0807 14:20:38.127475 12887 net.cpp:434] conv4_2 <- conv4_1
I0807 14:20:38.127480 12887 net.cpp:408] conv4_2 -> conv4_2
I0807 14:20:38.131918 12887 net.cpp:150] Setting up conv4_2
I0807 14:20:38.131944 12887 net.cpp:157] Top shape: 32 512 28 28 (12845056)
I0807 14:20:38.131949 12887 net.cpp:165] Memory required for data: 3436054528
I0807 14:20:38.131963 12887 layer_factory.hpp:77] Creating layer relu4_2
I0807 14:20:38.131974 12887 net.cpp:100] Creating Layer relu4_2
I0807 14:20:38.131979 12887 net.cpp:434] relu4_2 <- conv4_2
I0807 14:20:38.131985 12887 net.cpp:395] relu4_2 -> conv4_2 (in-place)
I0807 14:20:38.132118 12887 net.cpp:150] Setting up relu4_2
I0807 14:20:38.132128 12887 net.cpp:157] Top shape: 32 512 28 28 (12845056)
I0807 14:20:38.132130 12887 net.cpp:165] Memory required for data: 3487434752
I0807 14:20:38.132134 12887 layer_factory.hpp:77] Creating layer conv4_3
I0807 14:20:38.132139 12887 layer_factory.cpp:68] Use CuDNNConvolutionLayer
I0807 14:20:38.132146 12887 net.cpp:100] Creating Layer conv4_3
I0807 14:20:38.132150 12887 net.cpp:434] conv4_3 <- conv4_2
I0807 14:20:38.132155 12887 net.cpp:408] conv4_3 -> conv4_3
I0807 14:20:38.137367 12887 net.cpp:150] Setting up conv4_3
I0807 14:20:38.137388 12887 net.cpp:157] Top shape: 32 512 28 28 (12845056)
I0807 14:20:38.137392 12887 net.cpp:165] Memory required for data: 3538814976
I0807 14:20:38.137400 12887 layer_factory.hpp:77] Creating layer relu4_3
I0807 14:20:38.137408 12887 net.cpp:100] Creating Layer relu4_3
I0807 14:20:38.137413 12887 net.cpp:434] relu4_3 <- conv4_3
I0807 14:20:38.137421 12887 net.cpp:395] relu4_3 -> conv4_3 (in-place)
I0807 14:20:38.137660 12887 net.cpp:150] Setting up relu4_3
I0807 14:20:38.137671 12887 net.cpp:157] Top shape: 32 512 28 28 (12845056)
I0807 14:20:38.137675 12887 net.cpp:165] Memory required for data: 3590195200
I0807 14:20:38.137678 12887 layer_factory.hpp:77] Creating layer pool4
I0807 14:20:38.137688 12887 net.cpp:100] Creating Layer pool4
I0807 14:20:38.137692 12887 net.cpp:434] pool4 <- conv4_3
I0807 14:20:38.137697 12887 net.cpp:408] pool4 -> pool4
I0807 14:20:38.137735 12887 net.cpp:150] Setting up pool4
I0807 14:20:38.137743 12887 net.cpp:157] Top shape: 32 512 14 14 (3211264)
I0807 14:20:38.137759 12887 net.cpp:165] Memory required for data: 3603040256
I0807 14:20:38.137764 12887 layer_factory.hpp:77] Creating layer conv5_1
I0807 14:20:38.137769 12887 layer_factory.cpp:68] Use CuDNNConvolutionLayer
I0807 14:20:38.137776 12887 net.cpp:100] Creating Layer conv5_1
I0807 14:20:38.137780 12887 net.cpp:434] conv5_1 <- pool4
I0807 14:20:38.137786 12887 net.cpp:408] conv5_1 -> conv5_1
I0807 14:20:38.142118 12887 net.cpp:150] Setting up conv5_1
I0807 14:20:38.142139 12887 net.cpp:157] Top shape: 32 512 14 14 (3211264)
I0807 14:20:38.142143 12887 net.cpp:165] Memory required for data: 3615885312
I0807 14:20:38.142151 12887 layer_factory.hpp:77] Creating layer relu5_1
I0807 14:20:38.142160 12887 net.cpp:100] Creating Layer relu5_1
I0807 14:20:38.142165 12887 net.cpp:434] relu5_1 <- conv5_1
I0807 14:20:38.142171 12887 net.cpp:395] relu5_1 -> conv5_1 (in-place)
I0807 14:20:38.142304 12887 net.cpp:150] Setting up relu5_1
I0807 14:20:38.142313 12887 net.cpp:157] Top shape: 32 512 14 14 (3211264)
I0807 14:20:38.142318 12887 net.cpp:165] Memory required for data: 3628730368
I0807 14:20:38.142321 12887 layer_factory.hpp:77] Creating layer conv5_2
I0807 14:20:38.142326 12887 layer_factory.cpp:68] Use CuDNNConvolutionLayer
I0807 14:20:38.142335 12887 net.cpp:100] Creating Layer conv5_2
I0807 14:20:38.142339 12887 net.cpp:434] conv5_2 <- conv5_1
I0807 14:20:38.142344 12887 net.cpp:408] conv5_2 -> conv5_2
I0807 14:20:38.146909 12887 net.cpp:150] Setting up conv5_2
I0807 14:20:38.146934 12887 net.cpp:157] Top shape: 32 512 14 14 (3211264)
I0807 14:20:38.146939 12887 net.cpp:165] Memory required for data: 3641575424
I0807 14:20:38.146945 12887 layer_factory.hpp:77] Creating layer relu5_2
I0807 14:20:38.146955 12887 net.cpp:100] Creating Layer relu5_2
I0807 14:20:38.146960 12887 net.cpp:434] relu5_2 <- conv5_2
I0807 14:20:38.146965 12887 net.cpp:395] relu5_2 -> conv5_2 (in-place)
I0807 14:20:38.147089 12887 net.cpp:150] Setting up relu5_2
I0807 14:20:38.147096 12887 net.cpp:157] Top shape: 32 512 14 14 (3211264)
I0807 14:20:38.147100 12887 net.cpp:165] Memory required for data: 3654420480
I0807 14:20:38.147104 12887 layer_factory.hpp:77] Creating layer conv5_3
I0807 14:20:38.147109 12887 layer_factory.cpp:68] Use CuDNNConvolutionLayer
I0807 14:20:38.147114 12887 net.cpp:100] Creating Layer conv5_3
I0807 14:20:38.147119 12887 net.cpp:434] conv5_3 <- conv5_2
I0807 14:20:38.147124 12887 net.cpp:408] conv5_3 -> conv5_3
I0807 14:20:38.151135 12887 net.cpp:150] Setting up conv5_3
I0807 14:20:38.151161 12887 net.cpp:157] Top shape: 32 512 14 14 (3211264)
I0807 14:20:38.151165 12887 net.cpp:165] Memory required for data: 3667265536
I0807 14:20:38.151172 12887 layer_factory.hpp:77] Creating layer relu5_3
I0807 14:20:38.151181 12887 net.cpp:100] Creating Layer relu5_3
I0807 14:20:38.151186 12887 net.cpp:434] relu5_3 <- conv5_3
I0807 14:20:38.151193 12887 net.cpp:395] relu5_3 -> conv5_3 (in-place)
I0807 14:20:38.151402 12887 net.cpp:150] Setting up relu5_3
I0807 14:20:38.151412 12887 net.cpp:157] Top shape: 32 512 14 14 (3211264)
I0807 14:20:38.151415 12887 net.cpp:165] Memory required for data: 3680110592
I0807 14:20:38.151418 12887 layer_factory.hpp:77] Creating layer CAM_conv
I0807 14:20:38.151424 12887 layer_factory.cpp:68] Use CuDNNConvolutionLayer
I0807 14:20:38.151432 12887 net.cpp:100] Creating Layer CAM_conv
I0807 14:20:38.151437 12887 net.cpp:434] CAM_conv <- conv5_3
I0807 14:20:38.151443 12887 net.cpp:408] CAM_conv -> CAM_conv
I0807 14:20:38.205554 12887 net.cpp:150] Setting up CAM_conv
I0807 14:20:38.205575 12887 net.cpp:157] Top shape: 32 1024 14 14 (6422528)
I0807 14:20:38.205579 12887 net.cpp:165] Memory required for data: 3705800704
I0807 14:20:38.205587 12887 layer_factory.hpp:77] Creating layer CAM_relu
I0807 14:20:38.205598 12887 net.cpp:100] Creating Layer CAM_relu
I0807 14:20:38.205603 12887 net.cpp:434] CAM_relu <- CAM_conv
I0807 14:20:38.205608 12887 net.cpp:395] CAM_relu -> CAM_conv (in-place)
I0807 14:20:38.205819 12887 net.cpp:150] Setting up CAM_relu
I0807 14:20:38.205829 12887 net.cpp:157] Top shape: 32 1024 14 14 (6422528)
I0807 14:20:38.205842 12887 net.cpp:165] Memory required for data: 3731490816
I0807 14:20:38.205847 12887 layer_factory.hpp:77] Creating layer CAM_pool
I0807 14:20:38.205854 12887 net.cpp:100] Creating Layer CAM_pool
I0807 14:20:38.205858 12887 net.cpp:434] CAM_pool <- CAM_conv
I0807 14:20:38.205863 12887 net.cpp:408] CAM_pool -> CAM_pool
I0807 14:20:38.206096 12887 net.cpp:150] Setting up CAM_pool
I0807 14:20:38.206106 12887 net.cpp:157] Top shape: 32 1024 1 1 (32768)
I0807 14:20:38.206110 12887 net.cpp:165] Memory required for data: 3731621888
I0807 14:20:38.206113 12887 layer_factory.hpp:77] Creating layer CAM_dropout
I0807 14:20:38.206120 12887 net.cpp:100] Creating Layer CAM_dropout
I0807 14:20:38.206125 12887 net.cpp:434] CAM_dropout <- CAM_pool
I0807 14:20:38.206130 12887 net.cpp:395] CAM_dropout -> CAM_pool (in-place)
I0807 14:20:38.206152 12887 net.cpp:150] Setting up CAM_dropout
I0807 14:20:38.206159 12887 net.cpp:157] Top shape: 32 1024 1 1 (32768)
I0807 14:20:38.206163 12887 net.cpp:165] Memory required for data: 3731752960
I0807 14:20:38.206166 12887 layer_factory.hpp:77] Creating layer CAM_pre
I0807 14:20:38.206173 12887 net.cpp:100] Creating Layer CAM_pre
I0807 14:20:38.206178 12887 net.cpp:434] CAM_pre <- CAM_pool
I0807 14:20:38.206184 12887 net.cpp:408] CAM_pre -> CAM_pre
I0807 14:20:38.228940 12887 net.cpp:150] Setting up CAM_pre
I0807 14:20:38.228961 12887 net.cpp:157] Top shape: 32 1000 (32000)
I0807 14:20:38.228965 12887 net.cpp:165] Memory required for data: 3731880960
I0807 14:20:38.228973 12887 layer_factory.hpp:77] Creating layer loss
I0807 14:20:38.228981 12887 net.cpp:100] Creating Layer loss
I0807 14:20:38.228986 12887 net.cpp:434] loss <- CAM_pre
I0807 14:20:38.228991 12887 net.cpp:434] loss <- label
I0807 14:20:38.228998 12887 net.cpp:408] loss -> (automatic)
I0807 14:20:38.229014 12887 layer_factory.hpp:77] Creating layer loss
…
