…
I0806 17:19:40.168862 20613 net.cpp:58] Initializing net from parameters: 
name: "VGG_ILSVRC_16_layers"
state {
  phase: TRAIN
  level: 0
  stage: ""
}
layer {
  name: "data"
  type: "Data"
  top: "data"
  top: "label"
  include {
    phase: TRAIN
  }
  transform_param {
    mirror: true
    crop_size: 224
    mean_value: 103.939
    mean_value: 116.779
    mean_value: 123.68
  }
  data_param {
    source: "/home/lijun/Research/DataSet/ILSVRC2014/ILSVRC2014_DET/image/ilsvrc14_train_lmdb"
    batch_size: 32
    backend: LMDB
    multi_label: true
    label_size: 16
  }
}
layer {
  name: "conv1_1"
  type: "Convolution"
  bottom: "data"
  top: "conv1_1"
  param {
    lr_mult: 1
    decay_mult: 1
  }
  param {
    lr_mult: 2
    decay_mult: 0
  }
  convolution_param {
    num_output: 64
    pad: 1
    kernel_size: 3
  }
}
layer {
  name: "relu1_1"
  type: "ReLU"
  bottom: "conv1_1"
  top: "conv1_1"
}
layer {
  name: "conv1_2"
  type: "Convolution"
  bottom: "conv1_1"
  top: "conv1_2"
  param {
    lr_mult: 1
    decay_mult: 1
  }
  param {
    lr_mult: 2
    decay_mult: 0
  }
  convolution_param {
    num_output: 64
    pad: 1
    kernel_size: 3
  }
}
layer {
  name: "relu1_2"
  type: "ReLU"
  bottom: "conv1_2"
  top: "conv1_2"
}
layer {
  name: "pool1"
  type: "Pooling"
  bottom: "conv1_2"
  top: "pool1"
  pooling_param {
    pool: MAX
    kernel_size: 2
    stride: 2
  }
}
layer {
  name: "conv2_1"
  type: "Convolution"
  bottom: "pool1"
  top: "conv2_1"
  param {
    lr_mult: 1
    decay_mult: 1
  }
  param {
    lr_mult: 2
    decay_mult: 0
  }
  convolution_param {
    num_output: 128
    pad: 1
    kernel_size: 3
  }
}
layer {
  name: "relu2_1"
  type: "ReLU"
  bottom: "conv2_1"
  top: "conv2_1"
}
layer {
  name: "conv2_2"
  type: "Convolution"
  bottom: "conv2_1"
  top: "conv2_2"
  param {
    lr_mult: 1
    decay_mult: 1
  }
  param {
    lr_mult: 2
    decay_mult: 0
  }
  convolution_param {
    num_output: 128
    pad: 1
    kernel_size: 3
  }
}
layer {
  name: "relu2_2"
  type: "ReLU"
  bottom: "conv2_2"
  top: "conv2_2"
}
layer {
  name: "pool2"
  type: "Pooling"
  bottom: "conv2_2"
  top: "pool2"
  pooling_param {
    pool: MAX
    kernel_size: 2
    stride: 2
  }
}
layer {
  name: "conv3_1"
  type: "Convolution"
  bottom: "pool2"
  top: "conv3_1"
  param {
    lr_mult: 1
    decay_mult: 1
  }
  param {
    lr_mult: 2
    decay_mult: 0
  }
  convolution_param {
    num_output: 256
    pad: 1
    kernel_size: 3
  }
}
layer {
  name: "relu3_1"
  type: "ReLU"
  bottom: "conv3_1"
  top: "conv3_1"
}
layer {
  name: "conv3_2"
  type: "Convolution"
  bottom: "conv3_1"
  top: "conv3_2"
  param {
    lr_mult: 1
    decay_mult: 1
  }
  param {
    lr_mult: 2
    decay_mult: 0
  }
  convolution_param {
    num_output: 256
    pad: 1
    kernel_size: 3
  }
}
layer {
  name: "relu3_2"
  type: "ReLU"
  bottom: "conv3_2"
  top: "conv3_2"
}
layer {
  name: "conv3_3"
  type: "Convolution"
  bottom: "conv3_2"
  top: "conv3_3"
  param {
    lr_mult: 1
    decay_mult: 1
  }
  param {
    lr_mult: 2
    decay_mult: 0
  }
  convolution_param {
    num_output: 256
    pad: 1
    kernel_size: 3
  }
}
layer {
  name: "relu3_3"
  type: "ReLU"
  bottom: "conv3_3"
  top: "conv3_3"
}
layer {
  name: "pool3"
  type: "Pooling"
  bottom: "conv3_3"
  top: "pool3"
  pooling_param {
    pool: MAX
    kernel_size: 2
    stride: 2
  }
}
layer {
  name: "conv4_1"
  type: "Convolution"
  bottom: "pool3"
  top: "conv4_1"
  param {
    lr_mult: 1
    decay_mult: 1
  }
  param {
    lr_mult: 2
    decay_mult: 0
  }
  convolution_param {
    num_output: 512
    pad: 1
    kernel_size: 3
  }
}
layer {
  name: "relu4_1"
  type: "ReLU"
  bottom: "conv4_1"
  top: "conv4_1"
}
layer {
  name: "conv4_2"
  type: "Convolution"
  bottom: "conv4_1"
  top: "conv4_2"
  param {
    lr_mult: 1
    decay_mult: 1
  }
  param {
    lr_mult: 2
    decay_mult: 0
  }
  convolution_param {
    num_output: 512
    pad: 1
    kernel_size: 3
  }
}
layer {
  name: "relu4_2"
  type: "ReLU"
  bottom: "conv4_2"
  top: "conv4_2"
}
layer {
  name: "conv4_3"
  type: "Convolution"
  bottom: "conv4_2"
  top: "conv4_3"
  param {
    lr_mult: 1
    decay_mult: 1
  }
  param {
    lr_mult: 2
    decay_mult: 0
  }
  convolution_param {
    num_output: 512
    pad: 1
    kernel_size: 3
  }
}
layer {
  name: "relu4_3"
  type: "ReLU"
  bottom: "conv4_3"
  top: "conv4_3"
}
layer {
  name: "pool4"
  type: "Pooling"
  bottom: "conv4_3"
  top: "pool4"
  pooling_param {
    pool: MAX
    kernel_size: 2
    stride: 2
  }
}
layer {
  name: "conv5_1"
  type: "Convolution"
  bottom: "pool4"
  top: "conv5_1"
  param {
    lr_mult: 1
    decay_mult: 1
  }
  param {
    lr_mult: 2
    decay_mult: 0
  }
  convolution_param {
    num_output: 512
    pad: 1
    kernel_size: 3
  }
}
layer {
  name: "relu5_1"
  type: "ReLU"
  bottom: "conv5_1"
  top: "conv5_1"
}
layer {
  name: "conv5_2"
  type: "Convolution"
  bottom: "conv5_1"
  top: "conv5_2"
  param {
    lr_mult: 1
    decay_mult: 1
  }
  param {
    lr_mult: 2
    decay_mult: 0
  }
  convolution_param {
    num_output: 512
    pad: 1
    kernel_size: 3
  }
}
layer {
  name: "relu5_2"
  type: "ReLU"
  bottom: "conv5_2"
  top: "conv5_2"
}
layer {
  name: "conv5_3"
  type: "Convolution"
  bottom: "conv5_2"
  top: "conv5_3"
  param {
    lr_mult: 1
    decay_mult: 1
  }
  param {
    lr_mult: 2
    decay_mult: 0
  }
  convolution_param {
    num_output: 512
    pad: 1
    kernel_size: 3
  }
}
layer {
  name: "relu5_3"
  type: "ReLU"
  bottom: "conv5_3"
  top: "conv5_3"
}
layer {
  name: "CAM_conv"
  type: "Convolution"
  bottom: "conv5_3"
  top: "CAM_conv"
  param {
    lr_mult: 1
    decay_mult: 1
  }
  param {
    lr_mult: 2
    decay_mult: 0
  }
  convolution_param {
    num_output: 1024
    pad: 1
    kernel_size: 3
    group: 2
    weight_filler {
      type: "gaussian"
      std: 0.01
    }
    bias_filler {
      type: "constant"
      value: 0
    }
  }
}
layer {
  name: "CAM_relu"
  type: "ReLU"
  bottom: "CAM_conv"
  top: "CAM_conv"
}
layer {
  name: "CAM_pool"
  type: "Pooling"
  bottom: "CAM_conv"
  top: "CAM_pool"
  pooling_param {
    pool: AVE
    kernel_size: 14
    stride: 14
  }
}
layer {
  name: "CAM_dropout"
  type: "Dropout"
  bottom: "CAM_pool"
  top: "CAM_pool"
  dropout_param {
    dropout_ratio: 0.5
  }
}
layer {
  name: "CAM_pre"
  type: "InnerProduct"
  bottom: "CAM_pool"
  top: "CAM_pre"
  param {
    lr_mult: 10
    decay_mult: 1
  }
  param {
    lr_mult: 20
    decay_mult: 0
  }
  inner_product_param {
    num_output: 1000
    weight_filler {
      type: "gaussian"
      std: 0.01
    }
    bias_filler {
      type: "constant"
      value: 0
    }
  }
}
layer {
  name: "loss"
  type: "SigmoidMultiLabelLoss"
  bottom: "CAM_pre"
  bottom: "label"
}
I0806 17:19:40.168985 20613 layer_factory.hpp:77] Creating layer data
I0806 17:19:40.169394 20613 net.cpp:100] Creating Layer data
I0806 17:19:40.169409 20613 net.cpp:408] data -> data
I0806 17:19:40.169430 20613 net.cpp:408] data -> label
I0806 17:19:40.170159 20619 db_lmdb.cpp:35] Opened lmdb /home/lijun/Research/DataSet/ILSVRC2014/ILSVRC2014_DET/image/ilsvrc14_train_lmdb
I0806 17:19:40.177713 20613 data_layer.cpp:45] output data size: 32,3,224,224
I0806 17:19:40.204504 20613 net.cpp:150] Setting up data
I0806 17:19:40.204543 20613 net.cpp:157] Top shape: 32 3 224 224 (4816896)
I0806 17:19:40.204552 20613 net.cpp:157] Top shape: 32 16 1 1 (512)
I0806 17:19:40.204557 20613 net.cpp:165] Memory required for data: 19269632
I0806 17:19:40.204583 20613 layer_factory.hpp:77] Creating layer conv1_1
I0806 17:19:40.204612 20613 net.cpp:100] Creating Layer conv1_1
I0806 17:19:40.204619 20613 net.cpp:434] conv1_1 <- data
I0806 17:19:40.204637 20613 net.cpp:408] conv1_1 -> conv1_1
I0806 17:19:40.342409 20613 net.cpp:150] Setting up conv1_1
I0806 17:19:40.342438 20613 net.cpp:157] Top shape: 32 64 224 224 (102760448)
I0806 17:19:40.342444 20613 net.cpp:165] Memory required for data: 430311424
I0806 17:19:40.342463 20613 layer_factory.hpp:77] Creating layer relu1_1
I0806 17:19:40.342478 20613 net.cpp:100] Creating Layer relu1_1
I0806 17:19:40.342485 20613 net.cpp:434] relu1_1 <- conv1_1
I0806 17:19:40.342494 20613 net.cpp:395] relu1_1 -> conv1_1 (in-place)
I0806 17:19:40.342708 20613 net.cpp:150] Setting up relu1_1
I0806 17:19:40.342720 20613 net.cpp:157] Top shape: 32 64 224 224 (102760448)
I0806 17:19:40.342726 20613 net.cpp:165] Memory required for data: 841353216
I0806 17:19:40.342732 20613 layer_factory.hpp:77] Creating layer conv1_2
I0806 17:19:40.342744 20613 net.cpp:100] Creating Layer conv1_2
I0806 17:19:40.342751 20613 net.cpp:434] conv1_2 <- conv1_1
I0806 17:19:40.342759 20613 net.cpp:408] conv1_2 -> conv1_2
I0806 17:19:40.343430 20613 net.cpp:150] Setting up conv1_2
I0806 17:19:40.343442 20613 net.cpp:157] Top shape: 32 64 224 224 (102760448)
I0806 17:19:40.343448 20613 net.cpp:165] Memory required for data: 1252395008
I0806 17:19:40.343459 20613 layer_factory.hpp:77] Creating layer relu1_2
I0806 17:19:40.343469 20613 net.cpp:100] Creating Layer relu1_2
I0806 17:19:40.343477 20613 net.cpp:434] relu1_2 <- conv1_2
I0806 17:19:40.343484 20613 net.cpp:395] relu1_2 -> conv1_2 (in-place)
I0806 17:19:40.343677 20613 net.cpp:150] Setting up relu1_2
I0806 17:19:40.343689 20613 net.cpp:157] Top shape: 32 64 224 224 (102760448)
I0806 17:19:40.343695 20613 net.cpp:165] Memory required for data: 1663436800
I0806 17:19:40.343701 20613 layer_factory.hpp:77] Creating layer pool1
I0806 17:19:40.343713 20613 net.cpp:100] Creating Layer pool1
I0806 17:19:40.343719 20613 net.cpp:434] pool1 <- conv1_2
I0806 17:19:40.343727 20613 net.cpp:408] pool1 -> pool1
I0806 17:19:40.343772 20613 net.cpp:150] Setting up pool1
I0806 17:19:40.343782 20613 net.cpp:157] Top shape: 32 64 112 112 (25690112)
I0806 17:19:40.343788 20613 net.cpp:165] Memory required for data: 1766197248
I0806 17:19:40.343793 20613 layer_factory.hpp:77] Creating layer conv2_1
I0806 17:19:40.343803 20613 net.cpp:100] Creating Layer conv2_1
I0806 17:19:40.343809 20613 net.cpp:434] conv2_1 <- pool1
I0806 17:19:40.343818 20613 net.cpp:408] conv2_1 -> conv2_1
I0806 17:19:40.345091 20613 net.cpp:150] Setting up conv2_1
I0806 17:19:40.345104 20613 net.cpp:157] Top shape: 32 128 112 112 (51380224)
I0806 17:19:40.345110 20613 net.cpp:165] Memory required for data: 1971718144
I0806 17:19:40.345124 20613 layer_factory.hpp:77] Creating layer relu2_1
I0806 17:19:40.345141 20613 net.cpp:100] Creating Layer relu2_1
I0806 17:19:40.345147 20613 net.cpp:434] relu2_1 <- conv2_1
I0806 17:19:40.345155 20613 net.cpp:395] relu2_1 -> conv2_1 (in-place)
I0806 17:19:40.345283 20613 net.cpp:150] Setting up relu2_1
I0806 17:19:40.345293 20613 net.cpp:157] Top shape: 32 128 112 112 (51380224)
I0806 17:19:40.345299 20613 net.cpp:165] Memory required for data: 2177239040
I0806 17:19:40.345305 20613 layer_factory.hpp:77] Creating layer conv2_2
I0806 17:19:40.345319 20613 net.cpp:100] Creating Layer conv2_2
I0806 17:19:40.345325 20613 net.cpp:434] conv2_2 <- conv2_1
I0806 17:19:40.345335 20613 net.cpp:408] conv2_2 -> conv2_2
I0806 17:19:40.346081 20613 net.cpp:150] Setting up conv2_2
I0806 17:19:40.346094 20613 net.cpp:157] Top shape: 32 128 112 112 (51380224)
I0806 17:19:40.346101 20613 net.cpp:165] Memory required for data: 2382759936
I0806 17:19:40.346112 20613 layer_factory.hpp:77] Creating layer relu2_2
I0806 17:19:40.346120 20613 net.cpp:100] Creating Layer relu2_2
I0806 17:19:40.346127 20613 net.cpp:434] relu2_2 <- conv2_2
I0806 17:19:40.346144 20613 net.cpp:395] relu2_2 -> conv2_2 (in-place)
I0806 17:19:40.346354 20613 net.cpp:150] Setting up relu2_2
I0806 17:19:40.346364 20613 net.cpp:157] Top shape: 32 128 112 112 (51380224)
I0806 17:19:40.346370 20613 net.cpp:165] Memory required for data: 2588280832
I0806 17:19:40.346376 20613 layer_factory.hpp:77] Creating layer pool2
I0806 17:19:40.346385 20613 net.cpp:100] Creating Layer pool2
I0806 17:19:40.346391 20613 net.cpp:434] pool2 <- conv2_2
I0806 17:19:40.346400 20613 net.cpp:408] pool2 -> pool2
I0806 17:19:40.346438 20613 net.cpp:150] Setting up pool2
I0806 17:19:40.346447 20613 net.cpp:157] Top shape: 32 128 56 56 (12845056)
I0806 17:19:40.346453 20613 net.cpp:165] Memory required for data: 2639661056
I0806 17:19:40.346458 20613 layer_factory.hpp:77] Creating layer conv3_1
I0806 17:19:40.346468 20613 net.cpp:100] Creating Layer conv3_1
I0806 17:19:40.346474 20613 net.cpp:434] conv3_1 <- pool2
I0806 17:19:40.346483 20613 net.cpp:408] conv3_1 -> conv3_1
I0806 17:19:40.347506 20613 net.cpp:150] Setting up conv3_1
I0806 17:19:40.347518 20613 net.cpp:157] Top shape: 32 256 56 56 (25690112)
I0806 17:19:40.347524 20613 net.cpp:165] Memory required for data: 2742421504
I0806 17:19:40.347538 20613 layer_factory.hpp:77] Creating layer relu3_1
I0806 17:19:40.347548 20613 net.cpp:100] Creating Layer relu3_1
I0806 17:19:40.347554 20613 net.cpp:434] relu3_1 <- conv3_1
I0806 17:19:40.347563 20613 net.cpp:395] relu3_1 -> conv3_1 (in-place)
I0806 17:19:40.347770 20613 net.cpp:150] Setting up relu3_1
I0806 17:19:40.347781 20613 net.cpp:157] Top shape: 32 256 56 56 (25690112)
I0806 17:19:40.347787 20613 net.cpp:165] Memory required for data: 2845181952
I0806 17:19:40.347793 20613 layer_factory.hpp:77] Creating layer conv3_2
I0806 17:19:40.347805 20613 net.cpp:100] Creating Layer conv3_2
I0806 17:19:40.347811 20613 net.cpp:434] conv3_2 <- conv3_1
I0806 17:19:40.347822 20613 net.cpp:408] conv3_2 -> conv3_2
I0806 17:19:40.349266 20613 net.cpp:150] Setting up conv3_2
I0806 17:19:40.349278 20613 net.cpp:157] Top shape: 32 256 56 56 (25690112)
I0806 17:19:40.349284 20613 net.cpp:165] Memory required for data: 2947942400
I0806 17:19:40.349294 20613 layer_factory.hpp:77] Creating layer relu3_2
I0806 17:19:40.349303 20613 net.cpp:100] Creating Layer relu3_2
I0806 17:19:40.349309 20613 net.cpp:434] relu3_2 <- conv3_2
I0806 17:19:40.349318 20613 net.cpp:395] relu3_2 -> conv3_2 (in-place)
I0806 17:19:40.349450 20613 net.cpp:150] Setting up relu3_2
I0806 17:19:40.349462 20613 net.cpp:157] Top shape: 32 256 56 56 (25690112)
I0806 17:19:40.349468 20613 net.cpp:165] Memory required for data: 3050702848
I0806 17:19:40.349474 20613 layer_factory.hpp:77] Creating layer conv3_3
I0806 17:19:40.349484 20613 net.cpp:100] Creating Layer conv3_3
I0806 17:19:40.349490 20613 net.cpp:434] conv3_3 <- conv3_2
I0806 17:19:40.349503 20613 net.cpp:408] conv3_3 -> conv3_3
I0806 17:19:40.351039 20613 net.cpp:150] Setting up conv3_3
I0806 17:19:40.351053 20613 net.cpp:157] Top shape: 32 256 56 56 (25690112)
I0806 17:19:40.351059 20613 net.cpp:165] Memory required for data: 3153463296
I0806 17:19:40.351068 20613 layer_factory.hpp:77] Creating layer relu3_3
I0806 17:19:40.351081 20613 net.cpp:100] Creating Layer relu3_3
I0806 17:19:40.351089 20613 net.cpp:434] relu3_3 <- conv3_3
I0806 17:19:40.351096 20613 net.cpp:395] relu3_3 -> conv3_3 (in-place)
I0806 17:19:40.351317 20613 net.cpp:150] Setting up relu3_3
I0806 17:19:40.351328 20613 net.cpp:157] Top shape: 32 256 56 56 (25690112)
I0806 17:19:40.351335 20613 net.cpp:165] Memory required for data: 3256223744
I0806 17:19:40.351341 20613 layer_factory.hpp:77] Creating layer pool3
I0806 17:19:40.351349 20613 net.cpp:100] Creating Layer pool3
I0806 17:19:40.351356 20613 net.cpp:434] pool3 <- conv3_3
I0806 17:19:40.351366 20613 net.cpp:408] pool3 -> pool3
I0806 17:19:40.351408 20613 net.cpp:150] Setting up pool3
I0806 17:19:40.351416 20613 net.cpp:157] Top shape: 32 256 28 28 (6422528)
I0806 17:19:40.351421 20613 net.cpp:165] Memory required for data: 3281913856
I0806 17:19:40.351428 20613 layer_factory.hpp:77] Creating layer conv4_1
I0806 17:19:40.351439 20613 net.cpp:100] Creating Layer conv4_1
I0806 17:19:40.351457 20613 net.cpp:434] conv4_1 <- pool3
I0806 17:19:40.351467 20613 net.cpp:408] conv4_1 -> conv4_1
I0806 17:19:40.353623 20613 net.cpp:150] Setting up conv4_1
I0806 17:19:40.353641 20613 net.cpp:157] Top shape: 32 512 28 28 (12845056)
I0806 17:19:40.353646 20613 net.cpp:165] Memory required for data: 3333294080
I0806 17:19:40.353657 20613 layer_factory.hpp:77] Creating layer relu4_1
I0806 17:19:40.353669 20613 net.cpp:100] Creating Layer relu4_1
I0806 17:19:40.353675 20613 net.cpp:434] relu4_1 <- conv4_1
I0806 17:19:40.353684 20613 net.cpp:395] relu4_1 -> conv4_1 (in-place)
I0806 17:19:40.353899 20613 net.cpp:150] Setting up relu4_1
I0806 17:19:40.353909 20613 net.cpp:157] Top shape: 32 512 28 28 (12845056)
I0806 17:19:40.353915 20613 net.cpp:165] Memory required for data: 3384674304
I0806 17:19:40.353921 20613 layer_factory.hpp:77] Creating layer conv4_2
I0806 17:19:40.353935 20613 net.cpp:100] Creating Layer conv4_2
I0806 17:19:40.353940 20613 net.cpp:434] conv4_2 <- conv4_1
I0806 17:19:40.353950 20613 net.cpp:408] conv4_2 -> conv4_2
I0806 17:19:40.358212 20613 net.cpp:150] Setting up conv4_2
I0806 17:19:40.358242 20613 net.cpp:157] Top shape: 32 512 28 28 (12845056)
I0806 17:19:40.358249 20613 net.cpp:165] Memory required for data: 3436054528
I0806 17:19:40.358268 20613 layer_factory.hpp:77] Creating layer relu4_2
I0806 17:19:40.358279 20613 net.cpp:100] Creating Layer relu4_2
I0806 17:19:40.358286 20613 net.cpp:434] relu4_2 <- conv4_2
I0806 17:19:40.358297 20613 net.cpp:395] relu4_2 -> conv4_2 (in-place)
I0806 17:19:40.358434 20613 net.cpp:150] Setting up relu4_2
I0806 17:19:40.358446 20613 net.cpp:157] Top shape: 32 512 28 28 (12845056)
I0806 17:19:40.358453 20613 net.cpp:165] Memory required for data: 3487434752
I0806 17:19:40.358458 20613 layer_factory.hpp:77] Creating layer conv4_3
I0806 17:19:40.358470 20613 net.cpp:100] Creating Layer conv4_3
I0806 17:19:40.358476 20613 net.cpp:434] conv4_3 <- conv4_2
I0806 17:19:40.358487 20613 net.cpp:408] conv4_3 -> conv4_3
I0806 17:19:40.362612 20613 net.cpp:150] Setting up conv4_3
I0806 17:19:40.362643 20613 net.cpp:157] Top shape: 32 512 28 28 (12845056)
I0806 17:19:40.362648 20613 net.cpp:165] Memory required for data: 3538814976
I0806 17:19:40.362658 20613 layer_factory.hpp:77] Creating layer relu4_3
I0806 17:19:40.362673 20613 net.cpp:100] Creating Layer relu4_3
I0806 17:19:40.362679 20613 net.cpp:434] relu4_3 <- conv4_3
I0806 17:19:40.362689 20613 net.cpp:395] relu4_3 -> conv4_3 (in-place)
I0806 17:19:40.362931 20613 net.cpp:150] Setting up relu4_3
I0806 17:19:40.362943 20613 net.cpp:157] Top shape: 32 512 28 28 (12845056)
I0806 17:19:40.362949 20613 net.cpp:165] Memory required for data: 3590195200
I0806 17:19:40.362954 20613 layer_factory.hpp:77] Creating layer pool4
I0806 17:19:40.362963 20613 net.cpp:100] Creating Layer pool4
I0806 17:19:40.362968 20613 net.cpp:434] pool4 <- conv4_3
I0806 17:19:40.362977 20613 net.cpp:408] pool4 -> pool4
I0806 17:19:40.363026 20613 net.cpp:150] Setting up pool4
I0806 17:19:40.363036 20613 net.cpp:157] Top shape: 32 512 14 14 (3211264)
I0806 17:19:40.363042 20613 net.cpp:165] Memory required for data: 3603040256
I0806 17:19:40.363049 20613 layer_factory.hpp:77] Creating layer conv5_1
I0806 17:19:40.363059 20613 net.cpp:100] Creating Layer conv5_1
I0806 17:19:40.363066 20613 net.cpp:434] conv5_1 <- pool4
I0806 17:19:40.363076 20613 net.cpp:408] conv5_1 -> conv5_1
I0806 17:19:40.367089 20613 net.cpp:150] Setting up conv5_1
I0806 17:19:40.367118 20613 net.cpp:157] Top shape: 32 512 14 14 (3211264)
I0806 17:19:40.367125 20613 net.cpp:165] Memory required for data: 3615885312
I0806 17:19:40.367135 20613 layer_factory.hpp:77] Creating layer relu5_1
I0806 17:19:40.367148 20613 net.cpp:100] Creating Layer relu5_1
I0806 17:19:40.367156 20613 net.cpp:434] relu5_1 <- conv5_1
I0806 17:19:40.367164 20613 net.cpp:395] relu5_1 -> conv5_1 (in-place)
I0806 17:19:40.367380 20613 net.cpp:150] Setting up relu5_1
I0806 17:19:40.367391 20613 net.cpp:157] Top shape: 32 512 14 14 (3211264)
I0806 17:19:40.367414 20613 net.cpp:165] Memory required for data: 3628730368
I0806 17:19:40.367421 20613 layer_factory.hpp:77] Creating layer conv5_2
I0806 17:19:40.367435 20613 net.cpp:100] Creating Layer conv5_2
I0806 17:19:40.367442 20613 net.cpp:434] conv5_2 <- conv5_1
I0806 17:19:40.367454 20613 net.cpp:408] conv5_2 -> conv5_2
I0806 17:19:40.371896 20613 net.cpp:150] Setting up conv5_2
I0806 17:19:40.371922 20613 net.cpp:157] Top shape: 32 512 14 14 (3211264)
I0806 17:19:40.371927 20613 net.cpp:165] Memory required for data: 3641575424
I0806 17:19:40.371937 20613 layer_factory.hpp:77] Creating layer relu5_2
I0806 17:19:40.371948 20613 net.cpp:100] Creating Layer relu5_2
I0806 17:19:40.371956 20613 net.cpp:434] relu5_2 <- conv5_2
I0806 17:19:40.371968 20613 net.cpp:395] relu5_2 -> conv5_2 (in-place)
I0806 17:19:40.372103 20613 net.cpp:150] Setting up relu5_2
I0806 17:19:40.372115 20613 net.cpp:157] Top shape: 32 512 14 14 (3211264)
I0806 17:19:40.372122 20613 net.cpp:165] Memory required for data: 3654420480
I0806 17:19:40.372128 20613 layer_factory.hpp:77] Creating layer conv5_3
I0806 17:19:40.372139 20613 net.cpp:100] Creating Layer conv5_3
I0806 17:19:40.372145 20613 net.cpp:434] conv5_3 <- conv5_2
I0806 17:19:40.372156 20613 net.cpp:408] conv5_3 -> conv5_3
I0806 17:19:40.376301 20613 net.cpp:150] Setting up conv5_3
I0806 17:19:40.376327 20613 net.cpp:157] Top shape: 32 512 14 14 (3211264)
I0806 17:19:40.376332 20613 net.cpp:165] Memory required for data: 3667265536
I0806 17:19:40.376343 20613 layer_factory.hpp:77] Creating layer relu5_3
I0806 17:19:40.376358 20613 net.cpp:100] Creating Layer relu5_3
I0806 17:19:40.376364 20613 net.cpp:434] relu5_3 <- conv5_3
I0806 17:19:40.376375 20613 net.cpp:395] relu5_3 -> conv5_3 (in-place)
I0806 17:19:40.376595 20613 net.cpp:150] Setting up relu5_3
I0806 17:19:40.376605 20613 net.cpp:157] Top shape: 32 512 14 14 (3211264)
I0806 17:19:40.376611 20613 net.cpp:165] Memory required for data: 3680110592
I0806 17:19:40.376617 20613 layer_factory.hpp:77] Creating layer CAM_conv
I0806 17:19:40.376632 20613 net.cpp:100] Creating Layer CAM_conv
I0806 17:19:40.376639 20613 net.cpp:434] CAM_conv <- conv5_3
I0806 17:19:40.376652 20613 net.cpp:408] CAM_conv -> CAM_conv
I0806 17:19:40.429960 20613 net.cpp:150] Setting up CAM_conv
I0806 17:19:40.429985 20613 net.cpp:157] Top shape: 32 1024 14 14 (6422528)
I0806 17:19:40.429991 20613 net.cpp:165] Memory required for data: 3705800704
I0806 17:19:40.430001 20613 layer_factory.hpp:77] Creating layer CAM_relu
I0806 17:19:40.430019 20613 net.cpp:100] Creating Layer CAM_relu
I0806 17:19:40.430027 20613 net.cpp:434] CAM_relu <- CAM_conv
I0806 17:19:40.430035 20613 net.cpp:395] CAM_relu -> CAM_conv (in-place)
I0806 17:19:40.430256 20613 net.cpp:150] Setting up CAM_relu
I0806 17:19:40.430268 20613 net.cpp:157] Top shape: 32 1024 14 14 (6422528)
I0806 17:19:40.430274 20613 net.cpp:165] Memory required for data: 3731490816
I0806 17:19:40.430279 20613 layer_factory.hpp:77] Creating layer CAM_pool
I0806 17:19:40.430289 20613 net.cpp:100] Creating Layer CAM_pool
I0806 17:19:40.430295 20613 net.cpp:434] CAM_pool <- CAM_conv
I0806 17:19:40.430305 20613 net.cpp:408] CAM_pool -> CAM_pool
I0806 17:19:40.430461 20613 net.cpp:150] Setting up CAM_pool
I0806 17:19:40.430472 20613 net.cpp:157] Top shape: 32 1024 1 1 (32768)
I0806 17:19:40.430479 20613 net.cpp:165] Memory required for data: 3731621888
I0806 17:19:40.430485 20613 layer_factory.hpp:77] Creating layer CAM_dropout
I0806 17:19:40.430496 20613 net.cpp:100] Creating Layer CAM_dropout
I0806 17:19:40.430502 20613 net.cpp:434] CAM_dropout <- CAM_pool
I0806 17:19:40.430510 20613 net.cpp:395] CAM_dropout -> CAM_pool (in-place)
I0806 17:19:40.430542 20613 net.cpp:150] Setting up CAM_dropout
I0806 17:19:40.430552 20613 net.cpp:157] Top shape: 32 1024 1 1 (32768)
I0806 17:19:40.430557 20613 net.cpp:165] Memory required for data: 3731752960
I0806 17:19:40.430562 20613 layer_factory.hpp:77] Creating layer CAM_pre
I0806 17:19:40.430575 20613 net.cpp:100] Creating Layer CAM_pre
I0806 17:19:40.430582 20613 net.cpp:434] CAM_pre <- CAM_pool
I0806 17:19:40.430604 20613 net.cpp:408] CAM_pre -> CAM_pre
I0806 17:19:40.454301 20613 net.cpp:150] Setting up CAM_pre
I0806 17:19:40.454322 20613 net.cpp:157] Top shape: 32 1000 (32000)
I0806 17:19:40.454329 20613 net.cpp:165] Memory required for data: 3731880960
I0806 17:19:40.454339 20613 layer_factory.hpp:77] Creating layer loss
I0806 17:19:40.454351 20613 net.cpp:100] Creating Layer loss
I0806 17:19:40.454358 20613 net.cpp:434] loss <- CAM_pre
I0806 17:19:40.454366 20613 net.cpp:434] loss <- label
I0806 17:19:40.454376 20613 net.cpp:408] loss -> (automatic)
I0806 17:19:40.454396 20613 layer_factory.hpp:77] Creating layer loss
…
